<?xml version="1.0"?>
<net name="main_graph" version="11">
	<layers>
		<layer id="0" name="image" type="Parameter" version="opset1">
			<data shape="1,3,864,864" element_type="f32" />
			<output>
				<port id="0" precision="FP32" names="image">
					<dim>1</dim>
					<dim>3</dim>
					<dim>864</dim>
					<dim>864</dim>
				</port>
			</output>
		</layer>
		<layer id="1" name="/Constant_24" type="Const" version="opset1">
			<data element_type="f32" shape="1, 4, 4" offset="0" size="64" />
			<output>
				<port id="0" precision="FP32" names="/Constant_24_output_0">
					<dim>1</dim>
					<dim>4</dim>
					<dim>4</dim>
				</port>
			</output>
		</layer>
		<layer id="2" name="/Constant_6" type="Const" version="opset1">
			<data element_type="i64" shape="" offset="64" size="8" />
			<output>
				<port id="0" precision="I64" names="/Constant_6_output_0" />
			</output>
		</layer>
		<layer id="3" name="onnx::Conv_1127" type="Const" version="opset1">
			<data element_type="f32" shape="32, 3, 3, 3" offset="72" size="3456" />
			<output>
				<port id="0" precision="FP32" names="onnx::Conv_1127">
					<dim>32</dim>
					<dim>3</dim>
					<dim>3</dim>
					<dim>3</dim>
				</port>
			</output>
		</layer>
		<layer id="4" name="/backbone/init_block/conv/Conv/WithoutBiases" type="Convolution" version="opset1">
			<data strides="2, 2" dilations="1, 1" pads_begin="1, 1" pads_end="1, 1" auto_pad="explicit" />
			<input>
				<port id="0" precision="FP32">
					<dim>1</dim>
					<dim>3</dim>
					<dim>864</dim>
					<dim>864</dim>
				</port>
				<port id="1" precision="FP32">
					<dim>32</dim>
					<dim>3</dim>
					<dim>3</dim>
					<dim>3</dim>
				</port>
			</input>
			<output>
				<port id="2" precision="FP32">
					<dim>1</dim>
					<dim>32</dim>
					<dim>432</dim>
					<dim>432</dim>
				</port>
			</output>
		</layer>
		<layer id="5" name="Reshape_135" type="Const" version="opset1">
			<data element_type="f32" shape="1, 32, 1, 1" offset="3528" size="128" />
			<output>
				<port id="0" precision="FP32">
					<dim>1</dim>
					<dim>32</dim>
					<dim>1</dim>
					<dim>1</dim>
				</port>
			</output>
		</layer>
		<layer id="6" name="/backbone/init_block/conv/Conv" type="Add" version="opset1">
			<data auto_broadcast="numpy" />
			<input>
				<port id="0" precision="FP32">
					<dim>1</dim>
					<dim>32</dim>
					<dim>432</dim>
					<dim>432</dim>
				</port>
				<port id="1" precision="FP32">
					<dim>1</dim>
					<dim>32</dim>
					<dim>1</dim>
					<dim>1</dim>
				</port>
			</input>
			<output>
				<port id="2" precision="FP32" names="/backbone/init_block/conv/Conv_output_0">
					<dim>1</dim>
					<dim>32</dim>
					<dim>432</dim>
					<dim>432</dim>
				</port>
			</output>
		</layer>
		<layer id="7" name="/backbone/init_block/activ/Clip" type="Clamp" version="opset1">
			<data min="0" max="6" />
			<input>
				<port id="0" precision="FP32">
					<dim>1</dim>
					<dim>32</dim>
					<dim>432</dim>
					<dim>432</dim>
				</port>
			</input>
			<output>
				<port id="1" precision="FP32" names="/backbone/init_block/activ/Clip_output_0">
					<dim>1</dim>
					<dim>32</dim>
					<dim>432</dim>
					<dim>432</dim>
				</port>
			</output>
		</layer>
		<layer id="8" name="onnx::Conv_1130" type="Const" version="opset1">
			<data element_type="f32" shape="32, 32, 1, 1" offset="3656" size="4096" />
			<output>
				<port id="0" precision="FP32" names="onnx::Conv_1130">
					<dim>32</dim>
					<dim>32</dim>
					<dim>1</dim>
					<dim>1</dim>
				</port>
			</output>
		</layer>
		<layer id="9" name="/backbone/stage1/unit1/conv1/conv/Conv/WithoutBiases" type="Convolution" version="opset1">
			<data strides="1, 1" dilations="1, 1" pads_begin="0, 0" pads_end="0, 0" auto_pad="explicit" />
			<input>
				<port id="0" precision="FP32">
					<dim>1</dim>
					<dim>32</dim>
					<dim>432</dim>
					<dim>432</dim>
				</port>
				<port id="1" precision="FP32">
					<dim>32</dim>
					<dim>32</dim>
					<dim>1</dim>
					<dim>1</dim>
				</port>
			</input>
			<output>
				<port id="2" precision="FP32">
					<dim>1</dim>
					<dim>32</dim>
					<dim>432</dim>
					<dim>432</dim>
				</port>
			</output>
		</layer>
		<layer id="10" name="Reshape_155" type="Const" version="opset1">
			<data element_type="f32" shape="1, 32, 1, 1" offset="7752" size="128" />
			<output>
				<port id="0" precision="FP32">
					<dim>1</dim>
					<dim>32</dim>
					<dim>1</dim>
					<dim>1</dim>
				</port>
			</output>
		</layer>
		<layer id="11" name="/backbone/stage1/unit1/conv1/conv/Conv" type="Add" version="opset1">
			<data auto_broadcast="numpy" />
			<input>
				<port id="0" precision="FP32">
					<dim>1</dim>
					<dim>32</dim>
					<dim>432</dim>
					<dim>432</dim>
				</port>
				<port id="1" precision="FP32">
					<dim>1</dim>
					<dim>32</dim>
					<dim>1</dim>
					<dim>1</dim>
				</port>
			</input>
			<output>
				<port id="2" precision="FP32" names="/backbone/stage1/unit1/conv1/conv/Conv_output_0">
					<dim>1</dim>
					<dim>32</dim>
					<dim>432</dim>
					<dim>432</dim>
				</port>
			</output>
		</layer>
		<layer id="12" name="/backbone/stage1/unit1/conv1/activ/Clip" type="Clamp" version="opset1">
			<data min="0" max="6" />
			<input>
				<port id="0" precision="FP32">
					<dim>1</dim>
					<dim>32</dim>
					<dim>432</dim>
					<dim>432</dim>
				</port>
			</input>
			<output>
				<port id="1" precision="FP32" names="/backbone/stage1/unit1/conv1/activ/Clip_output_0">
					<dim>1</dim>
					<dim>32</dim>
					<dim>432</dim>
					<dim>432</dim>
				</port>
			</output>
		</layer>
		<layer id="13" name="Reshape_170" type="Const" version="opset1">
			<data element_type="f32" shape="32, 1, 1, 3, 3" offset="7880" size="1152" />
			<output>
				<port id="0" precision="FP32">
					<dim>32</dim>
					<dim>1</dim>
					<dim>1</dim>
					<dim>3</dim>
					<dim>3</dim>
				</port>
			</output>
		</layer>
		<layer id="14" name="/backbone/stage1/unit1/conv2/conv/Conv/WithoutBiases" type="GroupConvolution" version="opset1">
			<data strides="1, 1" pads_begin="1, 1" pads_end="1, 1" dilations="1, 1" auto_pad="explicit" />
			<input>
				<port id="0" precision="FP32">
					<dim>1</dim>
					<dim>32</dim>
					<dim>432</dim>
					<dim>432</dim>
				</port>
				<port id="1" precision="FP32">
					<dim>32</dim>
					<dim>1</dim>
					<dim>1</dim>
					<dim>3</dim>
					<dim>3</dim>
				</port>
			</input>
			<output>
				<port id="2" precision="FP32">
					<dim>1</dim>
					<dim>32</dim>
					<dim>432</dim>
					<dim>432</dim>
				</port>
			</output>
		</layer>
		<layer id="15" name="Reshape_222" type="Const" version="opset1">
			<data element_type="f32" shape="1, 32, 1, 1" offset="9032" size="128" />
			<output>
				<port id="0" precision="FP32">
					<dim>1</dim>
					<dim>32</dim>
					<dim>1</dim>
					<dim>1</dim>
				</port>
			</output>
		</layer>
		<layer id="16" name="/backbone/stage1/unit1/conv2/conv/Conv" type="Add" version="opset1">
			<data auto_broadcast="numpy" />
			<input>
				<port id="0" precision="FP32">
					<dim>1</dim>
					<dim>32</dim>
					<dim>432</dim>
					<dim>432</dim>
				</port>
				<port id="1" precision="FP32">
					<dim>1</dim>
					<dim>32</dim>
					<dim>1</dim>
					<dim>1</dim>
				</port>
			</input>
			<output>
				<port id="2" precision="FP32" names="/backbone/stage1/unit1/conv2/conv/Conv_output_0">
					<dim>1</dim>
					<dim>32</dim>
					<dim>432</dim>
					<dim>432</dim>
				</port>
			</output>
		</layer>
		<layer id="17" name="/backbone/stage1/unit1/conv2/activ/Clip" type="Clamp" version="opset1">
			<data min="0" max="6" />
			<input>
				<port id="0" precision="FP32">
					<dim>1</dim>
					<dim>32</dim>
					<dim>432</dim>
					<dim>432</dim>
				</port>
			</input>
			<output>
				<port id="1" precision="FP32" names="/backbone/stage1/unit1/conv2/activ/Clip_output_0">
					<dim>1</dim>
					<dim>32</dim>
					<dim>432</dim>
					<dim>432</dim>
				</port>
			</output>
		</layer>
		<layer id="18" name="onnx::Conv_1136" type="Const" version="opset1">
			<data element_type="f32" shape="16, 32, 1, 1" offset="9160" size="2048" />
			<output>
				<port id="0" precision="FP32" names="onnx::Conv_1136">
					<dim>16</dim>
					<dim>32</dim>
					<dim>1</dim>
					<dim>1</dim>
				</port>
			</output>
		</layer>
		<layer id="19" name="/backbone/stage1/unit1/conv3/conv/Conv/WithoutBiases" type="Convolution" version="opset1">
			<data strides="1, 1" dilations="1, 1" pads_begin="0, 0" pads_end="0, 0" auto_pad="explicit" />
			<input>
				<port id="0" precision="FP32">
					<dim>1</dim>
					<dim>32</dim>
					<dim>432</dim>
					<dim>432</dim>
				</port>
				<port id="1" precision="FP32">
					<dim>16</dim>
					<dim>32</dim>
					<dim>1</dim>
					<dim>1</dim>
				</port>
			</input>
			<output>
				<port id="2" precision="FP32">
					<dim>1</dim>
					<dim>16</dim>
					<dim>432</dim>
					<dim>432</dim>
				</port>
			</output>
		</layer>
		<layer id="20" name="Reshape_242" type="Const" version="opset1">
			<data element_type="f32" shape="1, 16, 1, 1" offset="11208" size="64" />
			<output>
				<port id="0" precision="FP32">
					<dim>1</dim>
					<dim>16</dim>
					<dim>1</dim>
					<dim>1</dim>
				</port>
			</output>
		</layer>
		<layer id="21" name="/backbone/stage1/unit1/conv3/conv/Conv" type="Add" version="opset1">
			<data auto_broadcast="numpy" />
			<input>
				<port id="0" precision="FP32">
					<dim>1</dim>
					<dim>16</dim>
					<dim>432</dim>
					<dim>432</dim>
				</port>
				<port id="1" precision="FP32">
					<dim>1</dim>
					<dim>16</dim>
					<dim>1</dim>
					<dim>1</dim>
				</port>
			</input>
			<output>
				<port id="2" precision="FP32" names="/backbone/stage1/unit1/conv3/conv/Conv_output_0">
					<dim>1</dim>
					<dim>16</dim>
					<dim>432</dim>
					<dim>432</dim>
				</port>
			</output>
		</layer>
		<layer id="22" name="onnx::Conv_1139" type="Const" version="opset1">
			<data element_type="f32" shape="96, 16, 1, 1" offset="11272" size="6144" />
			<output>
				<port id="0" precision="FP32" names="onnx::Conv_1139">
					<dim>96</dim>
					<dim>16</dim>
					<dim>1</dim>
					<dim>1</dim>
				</port>
			</output>
		</layer>
		<layer id="23" name="/backbone/stage2/unit1/conv1/conv/Conv/WithoutBiases" type="Convolution" version="opset1">
			<data strides="1, 1" dilations="1, 1" pads_begin="0, 0" pads_end="0, 0" auto_pad="explicit" />
			<input>
				<port id="0" precision="FP32">
					<dim>1</dim>
					<dim>16</dim>
					<dim>432</dim>
					<dim>432</dim>
				</port>
				<port id="1" precision="FP32">
					<dim>96</dim>
					<dim>16</dim>
					<dim>1</dim>
					<dim>1</dim>
				</port>
			</input>
			<output>
				<port id="2" precision="FP32">
					<dim>1</dim>
					<dim>96</dim>
					<dim>432</dim>
					<dim>432</dim>
				</port>
			</output>
		</layer>
		<layer id="24" name="Reshape_258" type="Const" version="opset1">
			<data element_type="f32" shape="1, 96, 1, 1" offset="17416" size="384" />
			<output>
				<port id="0" precision="FP32">
					<dim>1</dim>
					<dim>96</dim>
					<dim>1</dim>
					<dim>1</dim>
				</port>
			</output>
		</layer>
		<layer id="25" name="/backbone/stage2/unit1/conv1/conv/Conv" type="Add" version="opset1">
			<data auto_broadcast="numpy" />
			<input>
				<port id="0" precision="FP32">
					<dim>1</dim>
					<dim>96</dim>
					<dim>432</dim>
					<dim>432</dim>
				</port>
				<port id="1" precision="FP32">
					<dim>1</dim>
					<dim>96</dim>
					<dim>1</dim>
					<dim>1</dim>
				</port>
			</input>
			<output>
				<port id="2" precision="FP32" names="/backbone/stage2/unit1/conv1/conv/Conv_output_0">
					<dim>1</dim>
					<dim>96</dim>
					<dim>432</dim>
					<dim>432</dim>
				</port>
			</output>
		</layer>
		<layer id="26" name="/backbone/stage2/unit1/conv1/activ/Clip" type="Clamp" version="opset1">
			<data min="0" max="6" />
			<input>
				<port id="0" precision="FP32">
					<dim>1</dim>
					<dim>96</dim>
					<dim>432</dim>
					<dim>432</dim>
				</port>
			</input>
			<output>
				<port id="1" precision="FP32" names="/backbone/stage2/unit1/conv1/activ/Clip_output_0">
					<dim>1</dim>
					<dim>96</dim>
					<dim>432</dim>
					<dim>432</dim>
				</port>
			</output>
		</layer>
		<layer id="27" name="Reshape_273" type="Const" version="opset1">
			<data element_type="f32" shape="96, 1, 1, 3, 3" offset="17800" size="3456" />
			<output>
				<port id="0" precision="FP32">
					<dim>96</dim>
					<dim>1</dim>
					<dim>1</dim>
					<dim>3</dim>
					<dim>3</dim>
				</port>
			</output>
		</layer>
		<layer id="28" name="/backbone/stage2/unit1/conv2/conv/Conv/WithoutBiases" type="GroupConvolution" version="opset1">
			<data strides="2, 2" pads_begin="1, 1" pads_end="1, 1" dilations="1, 1" auto_pad="explicit" />
			<input>
				<port id="0" precision="FP32">
					<dim>1</dim>
					<dim>96</dim>
					<dim>432</dim>
					<dim>432</dim>
				</port>
				<port id="1" precision="FP32">
					<dim>96</dim>
					<dim>1</dim>
					<dim>1</dim>
					<dim>3</dim>
					<dim>3</dim>
				</port>
			</input>
			<output>
				<port id="2" precision="FP32">
					<dim>1</dim>
					<dim>96</dim>
					<dim>216</dim>
					<dim>216</dim>
				</port>
			</output>
		</layer>
		<layer id="29" name="Reshape_325" type="Const" version="opset1">
			<data element_type="f32" shape="1, 96, 1, 1" offset="21256" size="384" />
			<output>
				<port id="0" precision="FP32">
					<dim>1</dim>
					<dim>96</dim>
					<dim>1</dim>
					<dim>1</dim>
				</port>
			</output>
		</layer>
		<layer id="30" name="/backbone/stage2/unit1/conv2/conv/Conv" type="Add" version="opset1">
			<data auto_broadcast="numpy" />
			<input>
				<port id="0" precision="FP32">
					<dim>1</dim>
					<dim>96</dim>
					<dim>216</dim>
					<dim>216</dim>
				</port>
				<port id="1" precision="FP32">
					<dim>1</dim>
					<dim>96</dim>
					<dim>1</dim>
					<dim>1</dim>
				</port>
			</input>
			<output>
				<port id="2" precision="FP32" names="/backbone/stage2/unit1/conv2/conv/Conv_output_0">
					<dim>1</dim>
					<dim>96</dim>
					<dim>216</dim>
					<dim>216</dim>
				</port>
			</output>
		</layer>
		<layer id="31" name="/backbone/stage2/unit1/conv2/activ/Clip" type="Clamp" version="opset1">
			<data min="0" max="6" />
			<input>
				<port id="0" precision="FP32">
					<dim>1</dim>
					<dim>96</dim>
					<dim>216</dim>
					<dim>216</dim>
				</port>
			</input>
			<output>
				<port id="1" precision="FP32" names="/backbone/stage2/unit1/conv2/activ/Clip_output_0">
					<dim>1</dim>
					<dim>96</dim>
					<dim>216</dim>
					<dim>216</dim>
				</port>
			</output>
		</layer>
		<layer id="32" name="onnx::Conv_1145" type="Const" version="opset1">
			<data element_type="f32" shape="24, 96, 1, 1" offset="21640" size="9216" />
			<output>
				<port id="0" precision="FP32" names="onnx::Conv_1145">
					<dim>24</dim>
					<dim>96</dim>
					<dim>1</dim>
					<dim>1</dim>
				</port>
			</output>
		</layer>
		<layer id="33" name="/backbone/stage2/unit1/conv3/conv/Conv/WithoutBiases" type="Convolution" version="opset1">
			<data strides="1, 1" dilations="1, 1" pads_begin="0, 0" pads_end="0, 0" auto_pad="explicit" />
			<input>
				<port id="0" precision="FP32">
					<dim>1</dim>
					<dim>96</dim>
					<dim>216</dim>
					<dim>216</dim>
				</port>
				<port id="1" precision="FP32">
					<dim>24</dim>
					<dim>96</dim>
					<dim>1</dim>
					<dim>1</dim>
				</port>
			</input>
			<output>
				<port id="2" precision="FP32">
					<dim>1</dim>
					<dim>24</dim>
					<dim>216</dim>
					<dim>216</dim>
				</port>
			</output>
		</layer>
		<layer id="34" name="Reshape_345" type="Const" version="opset1">
			<data element_type="f32" shape="1, 24, 1, 1" offset="30856" size="96" />
			<output>
				<port id="0" precision="FP32">
					<dim>1</dim>
					<dim>24</dim>
					<dim>1</dim>
					<dim>1</dim>
				</port>
			</output>
		</layer>
		<layer id="35" name="/backbone/stage2/unit1/conv3/conv/Conv" type="Add" version="opset1">
			<data auto_broadcast="numpy" />
			<input>
				<port id="0" precision="FP32">
					<dim>1</dim>
					<dim>24</dim>
					<dim>216</dim>
					<dim>216</dim>
				</port>
				<port id="1" precision="FP32">
					<dim>1</dim>
					<dim>24</dim>
					<dim>1</dim>
					<dim>1</dim>
				</port>
			</input>
			<output>
				<port id="2" precision="FP32" names="/backbone/stage2/unit1/conv3/conv/Conv_output_0">
					<dim>1</dim>
					<dim>24</dim>
					<dim>216</dim>
					<dim>216</dim>
				</port>
			</output>
		</layer>
		<layer id="36" name="onnx::Conv_1148" type="Const" version="opset1">
			<data element_type="f32" shape="144, 24, 1, 1" offset="30952" size="13824" />
			<output>
				<port id="0" precision="FP32" names="onnx::Conv_1148">
					<dim>144</dim>
					<dim>24</dim>
					<dim>1</dim>
					<dim>1</dim>
				</port>
			</output>
		</layer>
		<layer id="37" name="/backbone/stage2/unit2/conv1/conv/Conv/WithoutBiases" type="Convolution" version="opset1">
			<data strides="1, 1" dilations="1, 1" pads_begin="0, 0" pads_end="0, 0" auto_pad="explicit" />
			<input>
				<port id="0" precision="FP32">
					<dim>1</dim>
					<dim>24</dim>
					<dim>216</dim>
					<dim>216</dim>
				</port>
				<port id="1" precision="FP32">
					<dim>144</dim>
					<dim>24</dim>
					<dim>1</dim>
					<dim>1</dim>
				</port>
			</input>
			<output>
				<port id="2" precision="FP32">
					<dim>1</dim>
					<dim>144</dim>
					<dim>216</dim>
					<dim>216</dim>
				</port>
			</output>
		</layer>
		<layer id="38" name="Reshape_361" type="Const" version="opset1">
			<data element_type="f32" shape="1, 144, 1, 1" offset="44776" size="576" />
			<output>
				<port id="0" precision="FP32">
					<dim>1</dim>
					<dim>144</dim>
					<dim>1</dim>
					<dim>1</dim>
				</port>
			</output>
		</layer>
		<layer id="39" name="/backbone/stage2/unit2/conv1/conv/Conv" type="Add" version="opset1">
			<data auto_broadcast="numpy" />
			<input>
				<port id="0" precision="FP32">
					<dim>1</dim>
					<dim>144</dim>
					<dim>216</dim>
					<dim>216</dim>
				</port>
				<port id="1" precision="FP32">
					<dim>1</dim>
					<dim>144</dim>
					<dim>1</dim>
					<dim>1</dim>
				</port>
			</input>
			<output>
				<port id="2" precision="FP32" names="/backbone/stage2/unit2/conv1/conv/Conv_output_0">
					<dim>1</dim>
					<dim>144</dim>
					<dim>216</dim>
					<dim>216</dim>
				</port>
			</output>
		</layer>
		<layer id="40" name="/backbone/stage2/unit2/conv1/activ/Clip" type="Clamp" version="opset1">
			<data min="0" max="6" />
			<input>
				<port id="0" precision="FP32">
					<dim>1</dim>
					<dim>144</dim>
					<dim>216</dim>
					<dim>216</dim>
				</port>
			</input>
			<output>
				<port id="1" precision="FP32" names="/backbone/stage2/unit2/conv1/activ/Clip_output_0">
					<dim>1</dim>
					<dim>144</dim>
					<dim>216</dim>
					<dim>216</dim>
				</port>
			</output>
		</layer>
		<layer id="41" name="Reshape_376" type="Const" version="opset1">
			<data element_type="f32" shape="144, 1, 1, 3, 3" offset="45352" size="5184" />
			<output>
				<port id="0" precision="FP32">
					<dim>144</dim>
					<dim>1</dim>
					<dim>1</dim>
					<dim>3</dim>
					<dim>3</dim>
				</port>
			</output>
		</layer>
		<layer id="42" name="/backbone/stage2/unit2/conv2/conv/Conv/WithoutBiases" type="GroupConvolution" version="opset1">
			<data strides="1, 1" pads_begin="1, 1" pads_end="1, 1" dilations="1, 1" auto_pad="explicit" />
			<input>
				<port id="0" precision="FP32">
					<dim>1</dim>
					<dim>144</dim>
					<dim>216</dim>
					<dim>216</dim>
				</port>
				<port id="1" precision="FP32">
					<dim>144</dim>
					<dim>1</dim>
					<dim>1</dim>
					<dim>3</dim>
					<dim>3</dim>
				</port>
			</input>
			<output>
				<port id="2" precision="FP32">
					<dim>1</dim>
					<dim>144</dim>
					<dim>216</dim>
					<dim>216</dim>
				</port>
			</output>
		</layer>
		<layer id="43" name="Reshape_428" type="Const" version="opset1">
			<data element_type="f32" shape="1, 144, 1, 1" offset="50536" size="576" />
			<output>
				<port id="0" precision="FP32">
					<dim>1</dim>
					<dim>144</dim>
					<dim>1</dim>
					<dim>1</dim>
				</port>
			</output>
		</layer>
		<layer id="44" name="/backbone/stage2/unit2/conv2/conv/Conv" type="Add" version="opset1">
			<data auto_broadcast="numpy" />
			<input>
				<port id="0" precision="FP32">
					<dim>1</dim>
					<dim>144</dim>
					<dim>216</dim>
					<dim>216</dim>
				</port>
				<port id="1" precision="FP32">
					<dim>1</dim>
					<dim>144</dim>
					<dim>1</dim>
					<dim>1</dim>
				</port>
			</input>
			<output>
				<port id="2" precision="FP32" names="/backbone/stage2/unit2/conv2/conv/Conv_output_0">
					<dim>1</dim>
					<dim>144</dim>
					<dim>216</dim>
					<dim>216</dim>
				</port>
			</output>
		</layer>
		<layer id="45" name="/backbone/stage2/unit2/conv2/activ/Clip" type="Clamp" version="opset1">
			<data min="0" max="6" />
			<input>
				<port id="0" precision="FP32">
					<dim>1</dim>
					<dim>144</dim>
					<dim>216</dim>
					<dim>216</dim>
				</port>
			</input>
			<output>
				<port id="1" precision="FP32" names="/backbone/stage2/unit2/conv2/activ/Clip_output_0">
					<dim>1</dim>
					<dim>144</dim>
					<dim>216</dim>
					<dim>216</dim>
				</port>
			</output>
		</layer>
		<layer id="46" name="onnx::Conv_1154" type="Const" version="opset1">
			<data element_type="f32" shape="24, 144, 1, 1" offset="51112" size="13824" />
			<output>
				<port id="0" precision="FP32" names="onnx::Conv_1154">
					<dim>24</dim>
					<dim>144</dim>
					<dim>1</dim>
					<dim>1</dim>
				</port>
			</output>
		</layer>
		<layer id="47" name="/backbone/stage2/unit2/conv3/conv/Conv/WithoutBiases" type="Convolution" version="opset1">
			<data strides="1, 1" dilations="1, 1" pads_begin="0, 0" pads_end="0, 0" auto_pad="explicit" />
			<input>
				<port id="0" precision="FP32">
					<dim>1</dim>
					<dim>144</dim>
					<dim>216</dim>
					<dim>216</dim>
				</port>
				<port id="1" precision="FP32">
					<dim>24</dim>
					<dim>144</dim>
					<dim>1</dim>
					<dim>1</dim>
				</port>
			</input>
			<output>
				<port id="2" precision="FP32">
					<dim>1</dim>
					<dim>24</dim>
					<dim>216</dim>
					<dim>216</dim>
				</port>
			</output>
		</layer>
		<layer id="48" name="Reshape_448" type="Const" version="opset1">
			<data element_type="f32" shape="1, 24, 1, 1" offset="64936" size="96" />
			<output>
				<port id="0" precision="FP32">
					<dim>1</dim>
					<dim>24</dim>
					<dim>1</dim>
					<dim>1</dim>
				</port>
			</output>
		</layer>
		<layer id="49" name="/backbone/stage2/unit2/conv3/conv/Conv" type="Add" version="opset1">
			<data auto_broadcast="numpy" />
			<input>
				<port id="0" precision="FP32">
					<dim>1</dim>
					<dim>24</dim>
					<dim>216</dim>
					<dim>216</dim>
				</port>
				<port id="1" precision="FP32">
					<dim>1</dim>
					<dim>24</dim>
					<dim>1</dim>
					<dim>1</dim>
				</port>
			</input>
			<output>
				<port id="2" precision="FP32" names="/backbone/stage2/unit2/conv3/conv/Conv_output_0">
					<dim>1</dim>
					<dim>24</dim>
					<dim>216</dim>
					<dim>216</dim>
				</port>
			</output>
		</layer>
		<layer id="50" name="/backbone/stage2/unit2/Add" type="Add" version="opset1">
			<data auto_broadcast="numpy" />
			<input>
				<port id="0" precision="FP32">
					<dim>1</dim>
					<dim>24</dim>
					<dim>216</dim>
					<dim>216</dim>
				</port>
				<port id="1" precision="FP32">
					<dim>1</dim>
					<dim>24</dim>
					<dim>216</dim>
					<dim>216</dim>
				</port>
			</input>
			<output>
				<port id="2" precision="FP32" names="/backbone/stage2/unit2/Add_output_0">
					<dim>1</dim>
					<dim>24</dim>
					<dim>216</dim>
					<dim>216</dim>
				</port>
			</output>
		</layer>
		<layer id="51" name="onnx::Conv_1157" type="Const" version="opset1">
			<data element_type="f32" shape="144, 24, 1, 1" offset="65032" size="13824" />
			<output>
				<port id="0" precision="FP32" names="onnx::Conv_1157">
					<dim>144</dim>
					<dim>24</dim>
					<dim>1</dim>
					<dim>1</dim>
				</port>
			</output>
		</layer>
		<layer id="52" name="/backbone/stage3/unit1/conv1/conv/Conv/WithoutBiases" type="Convolution" version="opset1">
			<data strides="1, 1" dilations="1, 1" pads_begin="0, 0" pads_end="0, 0" auto_pad="explicit" />
			<input>
				<port id="0" precision="FP32">
					<dim>1</dim>
					<dim>24</dim>
					<dim>216</dim>
					<dim>216</dim>
				</port>
				<port id="1" precision="FP32">
					<dim>144</dim>
					<dim>24</dim>
					<dim>1</dim>
					<dim>1</dim>
				</port>
			</input>
			<output>
				<port id="2" precision="FP32">
					<dim>1</dim>
					<dim>144</dim>
					<dim>216</dim>
					<dim>216</dim>
				</port>
			</output>
		</layer>
		<layer id="53" name="Reshape_465" type="Const" version="opset1">
			<data element_type="f32" shape="1, 144, 1, 1" offset="78856" size="576" />
			<output>
				<port id="0" precision="FP32">
					<dim>1</dim>
					<dim>144</dim>
					<dim>1</dim>
					<dim>1</dim>
				</port>
			</output>
		</layer>
		<layer id="54" name="/backbone/stage3/unit1/conv1/conv/Conv" type="Add" version="opset1">
			<data auto_broadcast="numpy" />
			<input>
				<port id="0" precision="FP32">
					<dim>1</dim>
					<dim>144</dim>
					<dim>216</dim>
					<dim>216</dim>
				</port>
				<port id="1" precision="FP32">
					<dim>1</dim>
					<dim>144</dim>
					<dim>1</dim>
					<dim>1</dim>
				</port>
			</input>
			<output>
				<port id="2" precision="FP32" names="/backbone/stage3/unit1/conv1/conv/Conv_output_0">
					<dim>1</dim>
					<dim>144</dim>
					<dim>216</dim>
					<dim>216</dim>
				</port>
			</output>
		</layer>
		<layer id="55" name="/backbone/stage3/unit1/conv1/activ/Clip" type="Clamp" version="opset1">
			<data min="0" max="6" />
			<input>
				<port id="0" precision="FP32">
					<dim>1</dim>
					<dim>144</dim>
					<dim>216</dim>
					<dim>216</dim>
				</port>
			</input>
			<output>
				<port id="1" precision="FP32" names="/backbone/stage3/unit1/conv1/activ/Clip_output_0">
					<dim>1</dim>
					<dim>144</dim>
					<dim>216</dim>
					<dim>216</dim>
				</port>
			</output>
		</layer>
		<layer id="56" name="Reshape_480" type="Const" version="opset1">
			<data element_type="f32" shape="144, 1, 1, 3, 3" offset="79432" size="5184" />
			<output>
				<port id="0" precision="FP32">
					<dim>144</dim>
					<dim>1</dim>
					<dim>1</dim>
					<dim>3</dim>
					<dim>3</dim>
				</port>
			</output>
		</layer>
		<layer id="57" name="/backbone/stage3/unit1/conv2/conv/Conv/WithoutBiases" type="GroupConvolution" version="opset1">
			<data strides="2, 2" pads_begin="1, 1" pads_end="1, 1" dilations="1, 1" auto_pad="explicit" />
			<input>
				<port id="0" precision="FP32">
					<dim>1</dim>
					<dim>144</dim>
					<dim>216</dim>
					<dim>216</dim>
				</port>
				<port id="1" precision="FP32">
					<dim>144</dim>
					<dim>1</dim>
					<dim>1</dim>
					<dim>3</dim>
					<dim>3</dim>
				</port>
			</input>
			<output>
				<port id="2" precision="FP32">
					<dim>1</dim>
					<dim>144</dim>
					<dim>108</dim>
					<dim>108</dim>
				</port>
			</output>
		</layer>
		<layer id="58" name="Reshape_532" type="Const" version="opset1">
			<data element_type="f32" shape="1, 144, 1, 1" offset="84616" size="576" />
			<output>
				<port id="0" precision="FP32">
					<dim>1</dim>
					<dim>144</dim>
					<dim>1</dim>
					<dim>1</dim>
				</port>
			</output>
		</layer>
		<layer id="59" name="/backbone/stage3/unit1/conv2/conv/Conv" type="Add" version="opset1">
			<data auto_broadcast="numpy" />
			<input>
				<port id="0" precision="FP32">
					<dim>1</dim>
					<dim>144</dim>
					<dim>108</dim>
					<dim>108</dim>
				</port>
				<port id="1" precision="FP32">
					<dim>1</dim>
					<dim>144</dim>
					<dim>1</dim>
					<dim>1</dim>
				</port>
			</input>
			<output>
				<port id="2" precision="FP32" names="/backbone/stage3/unit1/conv2/conv/Conv_output_0">
					<dim>1</dim>
					<dim>144</dim>
					<dim>108</dim>
					<dim>108</dim>
				</port>
			</output>
		</layer>
		<layer id="60" name="/backbone/stage3/unit1/conv2/activ/Clip" type="Clamp" version="opset1">
			<data min="0" max="6" />
			<input>
				<port id="0" precision="FP32">
					<dim>1</dim>
					<dim>144</dim>
					<dim>108</dim>
					<dim>108</dim>
				</port>
			</input>
			<output>
				<port id="1" precision="FP32" names="/backbone/stage3/unit1/conv2/activ/Clip_output_0">
					<dim>1</dim>
					<dim>144</dim>
					<dim>108</dim>
					<dim>108</dim>
				</port>
			</output>
		</layer>
		<layer id="61" name="onnx::Conv_1163" type="Const" version="opset1">
			<data element_type="f32" shape="32, 144, 1, 1" offset="85192" size="18432" />
			<output>
				<port id="0" precision="FP32" names="onnx::Conv_1163">
					<dim>32</dim>
					<dim>144</dim>
					<dim>1</dim>
					<dim>1</dim>
				</port>
			</output>
		</layer>
		<layer id="62" name="/backbone/stage3/unit1/conv3/conv/Conv/WithoutBiases" type="Convolution" version="opset1">
			<data strides="1, 1" dilations="1, 1" pads_begin="0, 0" pads_end="0, 0" auto_pad="explicit" />
			<input>
				<port id="0" precision="FP32">
					<dim>1</dim>
					<dim>144</dim>
					<dim>108</dim>
					<dim>108</dim>
				</port>
				<port id="1" precision="FP32">
					<dim>32</dim>
					<dim>144</dim>
					<dim>1</dim>
					<dim>1</dim>
				</port>
			</input>
			<output>
				<port id="2" precision="FP32">
					<dim>1</dim>
					<dim>32</dim>
					<dim>108</dim>
					<dim>108</dim>
				</port>
			</output>
		</layer>
		<layer id="63" name="Reshape_552" type="Const" version="opset1">
			<data element_type="f32" shape="1, 32, 1, 1" offset="103624" size="128" />
			<output>
				<port id="0" precision="FP32">
					<dim>1</dim>
					<dim>32</dim>
					<dim>1</dim>
					<dim>1</dim>
				</port>
			</output>
		</layer>
		<layer id="64" name="/backbone/stage3/unit1/conv3/conv/Conv" type="Add" version="opset1">
			<data auto_broadcast="numpy" />
			<input>
				<port id="0" precision="FP32">
					<dim>1</dim>
					<dim>32</dim>
					<dim>108</dim>
					<dim>108</dim>
				</port>
				<port id="1" precision="FP32">
					<dim>1</dim>
					<dim>32</dim>
					<dim>1</dim>
					<dim>1</dim>
				</port>
			</input>
			<output>
				<port id="2" precision="FP32" names="/backbone/stage3/unit1/conv3/conv/Conv_output_0">
					<dim>1</dim>
					<dim>32</dim>
					<dim>108</dim>
					<dim>108</dim>
				</port>
			</output>
		</layer>
		<layer id="65" name="onnx::Conv_1166" type="Const" version="opset1">
			<data element_type="f32" shape="192, 32, 1, 1" offset="103752" size="24576" />
			<output>
				<port id="0" precision="FP32" names="onnx::Conv_1166">
					<dim>192</dim>
					<dim>32</dim>
					<dim>1</dim>
					<dim>1</dim>
				</port>
			</output>
		</layer>
		<layer id="66" name="/backbone/stage3/unit2/conv1/conv/Conv/WithoutBiases" type="Convolution" version="opset1">
			<data strides="1, 1" dilations="1, 1" pads_begin="0, 0" pads_end="0, 0" auto_pad="explicit" />
			<input>
				<port id="0" precision="FP32">
					<dim>1</dim>
					<dim>32</dim>
					<dim>108</dim>
					<dim>108</dim>
				</port>
				<port id="1" precision="FP32">
					<dim>192</dim>
					<dim>32</dim>
					<dim>1</dim>
					<dim>1</dim>
				</port>
			</input>
			<output>
				<port id="2" precision="FP32">
					<dim>1</dim>
					<dim>192</dim>
					<dim>108</dim>
					<dim>108</dim>
				</port>
			</output>
		</layer>
		<layer id="67" name="Reshape_568" type="Const" version="opset1">
			<data element_type="f32" shape="1, 192, 1, 1" offset="128328" size="768" />
			<output>
				<port id="0" precision="FP32">
					<dim>1</dim>
					<dim>192</dim>
					<dim>1</dim>
					<dim>1</dim>
				</port>
			</output>
		</layer>
		<layer id="68" name="/backbone/stage3/unit2/conv1/conv/Conv" type="Add" version="opset1">
			<data auto_broadcast="numpy" />
			<input>
				<port id="0" precision="FP32">
					<dim>1</dim>
					<dim>192</dim>
					<dim>108</dim>
					<dim>108</dim>
				</port>
				<port id="1" precision="FP32">
					<dim>1</dim>
					<dim>192</dim>
					<dim>1</dim>
					<dim>1</dim>
				</port>
			</input>
			<output>
				<port id="2" precision="FP32" names="/backbone/stage3/unit2/conv1/conv/Conv_output_0">
					<dim>1</dim>
					<dim>192</dim>
					<dim>108</dim>
					<dim>108</dim>
				</port>
			</output>
		</layer>
		<layer id="69" name="/backbone/stage3/unit2/conv1/activ/Clip" type="Clamp" version="opset1">
			<data min="0" max="6" />
			<input>
				<port id="0" precision="FP32">
					<dim>1</dim>
					<dim>192</dim>
					<dim>108</dim>
					<dim>108</dim>
				</port>
			</input>
			<output>
				<port id="1" precision="FP32" names="/backbone/stage3/unit2/conv1/activ/Clip_output_0">
					<dim>1</dim>
					<dim>192</dim>
					<dim>108</dim>
					<dim>108</dim>
				</port>
			</output>
		</layer>
		<layer id="70" name="Reshape_583" type="Const" version="opset1">
			<data element_type="f32" shape="192, 1, 1, 3, 3" offset="129096" size="6912" />
			<output>
				<port id="0" precision="FP32">
					<dim>192</dim>
					<dim>1</dim>
					<dim>1</dim>
					<dim>3</dim>
					<dim>3</dim>
				</port>
			</output>
		</layer>
		<layer id="71" name="/backbone/stage3/unit2/conv2/conv/Conv/WithoutBiases" type="GroupConvolution" version="opset1">
			<data strides="1, 1" pads_begin="1, 1" pads_end="1, 1" dilations="1, 1" auto_pad="explicit" />
			<input>
				<port id="0" precision="FP32">
					<dim>1</dim>
					<dim>192</dim>
					<dim>108</dim>
					<dim>108</dim>
				</port>
				<port id="1" precision="FP32">
					<dim>192</dim>
					<dim>1</dim>
					<dim>1</dim>
					<dim>3</dim>
					<dim>3</dim>
				</port>
			</input>
			<output>
				<port id="2" precision="FP32">
					<dim>1</dim>
					<dim>192</dim>
					<dim>108</dim>
					<dim>108</dim>
				</port>
			</output>
		</layer>
		<layer id="72" name="Reshape_635" type="Const" version="opset1">
			<data element_type="f32" shape="1, 192, 1, 1" offset="136008" size="768" />
			<output>
				<port id="0" precision="FP32">
					<dim>1</dim>
					<dim>192</dim>
					<dim>1</dim>
					<dim>1</dim>
				</port>
			</output>
		</layer>
		<layer id="73" name="/backbone/stage3/unit2/conv2/conv/Conv" type="Add" version="opset1">
			<data auto_broadcast="numpy" />
			<input>
				<port id="0" precision="FP32">
					<dim>1</dim>
					<dim>192</dim>
					<dim>108</dim>
					<dim>108</dim>
				</port>
				<port id="1" precision="FP32">
					<dim>1</dim>
					<dim>192</dim>
					<dim>1</dim>
					<dim>1</dim>
				</port>
			</input>
			<output>
				<port id="2" precision="FP32" names="/backbone/stage3/unit2/conv2/conv/Conv_output_0">
					<dim>1</dim>
					<dim>192</dim>
					<dim>108</dim>
					<dim>108</dim>
				</port>
			</output>
		</layer>
		<layer id="74" name="/backbone/stage3/unit2/conv2/activ/Clip" type="Clamp" version="opset1">
			<data min="0" max="6" />
			<input>
				<port id="0" precision="FP32">
					<dim>1</dim>
					<dim>192</dim>
					<dim>108</dim>
					<dim>108</dim>
				</port>
			</input>
			<output>
				<port id="1" precision="FP32" names="/backbone/stage3/unit2/conv2/activ/Clip_output_0">
					<dim>1</dim>
					<dim>192</dim>
					<dim>108</dim>
					<dim>108</dim>
				</port>
			</output>
		</layer>
		<layer id="75" name="onnx::Conv_1172" type="Const" version="opset1">
			<data element_type="f32" shape="32, 192, 1, 1" offset="136776" size="24576" />
			<output>
				<port id="0" precision="FP32" names="onnx::Conv_1172">
					<dim>32</dim>
					<dim>192</dim>
					<dim>1</dim>
					<dim>1</dim>
				</port>
			</output>
		</layer>
		<layer id="76" name="/backbone/stage3/unit2/conv3/conv/Conv/WithoutBiases" type="Convolution" version="opset1">
			<data strides="1, 1" dilations="1, 1" pads_begin="0, 0" pads_end="0, 0" auto_pad="explicit" />
			<input>
				<port id="0" precision="FP32">
					<dim>1</dim>
					<dim>192</dim>
					<dim>108</dim>
					<dim>108</dim>
				</port>
				<port id="1" precision="FP32">
					<dim>32</dim>
					<dim>192</dim>
					<dim>1</dim>
					<dim>1</dim>
				</port>
			</input>
			<output>
				<port id="2" precision="FP32">
					<dim>1</dim>
					<dim>32</dim>
					<dim>108</dim>
					<dim>108</dim>
				</port>
			</output>
		</layer>
		<layer id="77" name="Reshape_655" type="Const" version="opset1">
			<data element_type="f32" shape="1, 32, 1, 1" offset="161352" size="128" />
			<output>
				<port id="0" precision="FP32">
					<dim>1</dim>
					<dim>32</dim>
					<dim>1</dim>
					<dim>1</dim>
				</port>
			</output>
		</layer>
		<layer id="78" name="/backbone/stage3/unit2/conv3/conv/Conv" type="Add" version="opset1">
			<data auto_broadcast="numpy" />
			<input>
				<port id="0" precision="FP32">
					<dim>1</dim>
					<dim>32</dim>
					<dim>108</dim>
					<dim>108</dim>
				</port>
				<port id="1" precision="FP32">
					<dim>1</dim>
					<dim>32</dim>
					<dim>1</dim>
					<dim>1</dim>
				</port>
			</input>
			<output>
				<port id="2" precision="FP32" names="/backbone/stage3/unit2/conv3/conv/Conv_output_0">
					<dim>1</dim>
					<dim>32</dim>
					<dim>108</dim>
					<dim>108</dim>
				</port>
			</output>
		</layer>
		<layer id="79" name="/backbone/stage3/unit2/Add" type="Add" version="opset1">
			<data auto_broadcast="numpy" />
			<input>
				<port id="0" precision="FP32">
					<dim>1</dim>
					<dim>32</dim>
					<dim>108</dim>
					<dim>108</dim>
				</port>
				<port id="1" precision="FP32">
					<dim>1</dim>
					<dim>32</dim>
					<dim>108</dim>
					<dim>108</dim>
				</port>
			</input>
			<output>
				<port id="2" precision="FP32" names="/backbone/stage3/unit2/Add_output_0">
					<dim>1</dim>
					<dim>32</dim>
					<dim>108</dim>
					<dim>108</dim>
				</port>
			</output>
		</layer>
		<layer id="80" name="onnx::Conv_1175" type="Const" version="opset1">
			<data element_type="f32" shape="192, 32, 1, 1" offset="161480" size="24576" />
			<output>
				<port id="0" precision="FP32" names="onnx::Conv_1175">
					<dim>192</dim>
					<dim>32</dim>
					<dim>1</dim>
					<dim>1</dim>
				</port>
			</output>
		</layer>
		<layer id="81" name="/backbone/stage3/unit3/conv1/conv/Conv/WithoutBiases" type="Convolution" version="opset1">
			<data strides="1, 1" dilations="1, 1" pads_begin="0, 0" pads_end="0, 0" auto_pad="explicit" />
			<input>
				<port id="0" precision="FP32">
					<dim>1</dim>
					<dim>32</dim>
					<dim>108</dim>
					<dim>108</dim>
				</port>
				<port id="1" precision="FP32">
					<dim>192</dim>
					<dim>32</dim>
					<dim>1</dim>
					<dim>1</dim>
				</port>
			</input>
			<output>
				<port id="2" precision="FP32">
					<dim>1</dim>
					<dim>192</dim>
					<dim>108</dim>
					<dim>108</dim>
				</port>
			</output>
		</layer>
		<layer id="82" name="Reshape_672" type="Const" version="opset1">
			<data element_type="f32" shape="1, 192, 1, 1" offset="186056" size="768" />
			<output>
				<port id="0" precision="FP32">
					<dim>1</dim>
					<dim>192</dim>
					<dim>1</dim>
					<dim>1</dim>
				</port>
			</output>
		</layer>
		<layer id="83" name="/backbone/stage3/unit3/conv1/conv/Conv" type="Add" version="opset1">
			<data auto_broadcast="numpy" />
			<input>
				<port id="0" precision="FP32">
					<dim>1</dim>
					<dim>192</dim>
					<dim>108</dim>
					<dim>108</dim>
				</port>
				<port id="1" precision="FP32">
					<dim>1</dim>
					<dim>192</dim>
					<dim>1</dim>
					<dim>1</dim>
				</port>
			</input>
			<output>
				<port id="2" precision="FP32" names="/backbone/stage3/unit3/conv1/conv/Conv_output_0">
					<dim>1</dim>
					<dim>192</dim>
					<dim>108</dim>
					<dim>108</dim>
				</port>
			</output>
		</layer>
		<layer id="84" name="/backbone/stage3/unit3/conv1/activ/Clip" type="Clamp" version="opset1">
			<data min="0" max="6" />
			<input>
				<port id="0" precision="FP32">
					<dim>1</dim>
					<dim>192</dim>
					<dim>108</dim>
					<dim>108</dim>
				</port>
			</input>
			<output>
				<port id="1" precision="FP32" names="/backbone/stage3/unit3/conv1/activ/Clip_output_0">
					<dim>1</dim>
					<dim>192</dim>
					<dim>108</dim>
					<dim>108</dim>
				</port>
			</output>
		</layer>
		<layer id="85" name="Reshape_687" type="Const" version="opset1">
			<data element_type="f32" shape="192, 1, 1, 3, 3" offset="186824" size="6912" />
			<output>
				<port id="0" precision="FP32">
					<dim>192</dim>
					<dim>1</dim>
					<dim>1</dim>
					<dim>3</dim>
					<dim>3</dim>
				</port>
			</output>
		</layer>
		<layer id="86" name="/backbone/stage3/unit3/conv2/conv/Conv/WithoutBiases" type="GroupConvolution" version="opset1">
			<data strides="1, 1" pads_begin="1, 1" pads_end="1, 1" dilations="1, 1" auto_pad="explicit" />
			<input>
				<port id="0" precision="FP32">
					<dim>1</dim>
					<dim>192</dim>
					<dim>108</dim>
					<dim>108</dim>
				</port>
				<port id="1" precision="FP32">
					<dim>192</dim>
					<dim>1</dim>
					<dim>1</dim>
					<dim>3</dim>
					<dim>3</dim>
				</port>
			</input>
			<output>
				<port id="2" precision="FP32">
					<dim>1</dim>
					<dim>192</dim>
					<dim>108</dim>
					<dim>108</dim>
				</port>
			</output>
		</layer>
		<layer id="87" name="Reshape_739" type="Const" version="opset1">
			<data element_type="f32" shape="1, 192, 1, 1" offset="193736" size="768" />
			<output>
				<port id="0" precision="FP32">
					<dim>1</dim>
					<dim>192</dim>
					<dim>1</dim>
					<dim>1</dim>
				</port>
			</output>
		</layer>
		<layer id="88" name="/backbone/stage3/unit3/conv2/conv/Conv" type="Add" version="opset1">
			<data auto_broadcast="numpy" />
			<input>
				<port id="0" precision="FP32">
					<dim>1</dim>
					<dim>192</dim>
					<dim>108</dim>
					<dim>108</dim>
				</port>
				<port id="1" precision="FP32">
					<dim>1</dim>
					<dim>192</dim>
					<dim>1</dim>
					<dim>1</dim>
				</port>
			</input>
			<output>
				<port id="2" precision="FP32" names="/backbone/stage3/unit3/conv2/conv/Conv_output_0">
					<dim>1</dim>
					<dim>192</dim>
					<dim>108</dim>
					<dim>108</dim>
				</port>
			</output>
		</layer>
		<layer id="89" name="/backbone/stage3/unit3/conv2/activ/Clip" type="Clamp" version="opset1">
			<data min="0" max="6" />
			<input>
				<port id="0" precision="FP32">
					<dim>1</dim>
					<dim>192</dim>
					<dim>108</dim>
					<dim>108</dim>
				</port>
			</input>
			<output>
				<port id="1" precision="FP32" names="/backbone/stage3/unit3/conv2/activ/Clip_output_0">
					<dim>1</dim>
					<dim>192</dim>
					<dim>108</dim>
					<dim>108</dim>
				</port>
			</output>
		</layer>
		<layer id="90" name="onnx::Conv_1181" type="Const" version="opset1">
			<data element_type="f32" shape="32, 192, 1, 1" offset="194504" size="24576" />
			<output>
				<port id="0" precision="FP32" names="onnx::Conv_1181">
					<dim>32</dim>
					<dim>192</dim>
					<dim>1</dim>
					<dim>1</dim>
				</port>
			</output>
		</layer>
		<layer id="91" name="/backbone/stage3/unit3/conv3/conv/Conv/WithoutBiases" type="Convolution" version="opset1">
			<data strides="1, 1" dilations="1, 1" pads_begin="0, 0" pads_end="0, 0" auto_pad="explicit" />
			<input>
				<port id="0" precision="FP32">
					<dim>1</dim>
					<dim>192</dim>
					<dim>108</dim>
					<dim>108</dim>
				</port>
				<port id="1" precision="FP32">
					<dim>32</dim>
					<dim>192</dim>
					<dim>1</dim>
					<dim>1</dim>
				</port>
			</input>
			<output>
				<port id="2" precision="FP32">
					<dim>1</dim>
					<dim>32</dim>
					<dim>108</dim>
					<dim>108</dim>
				</port>
			</output>
		</layer>
		<layer id="92" name="Reshape_759" type="Const" version="opset1">
			<data element_type="f32" shape="1, 32, 1, 1" offset="219080" size="128" />
			<output>
				<port id="0" precision="FP32">
					<dim>1</dim>
					<dim>32</dim>
					<dim>1</dim>
					<dim>1</dim>
				</port>
			</output>
		</layer>
		<layer id="93" name="/backbone/stage3/unit3/conv3/conv/Conv" type="Add" version="opset1">
			<data auto_broadcast="numpy" />
			<input>
				<port id="0" precision="FP32">
					<dim>1</dim>
					<dim>32</dim>
					<dim>108</dim>
					<dim>108</dim>
				</port>
				<port id="1" precision="FP32">
					<dim>1</dim>
					<dim>32</dim>
					<dim>1</dim>
					<dim>1</dim>
				</port>
			</input>
			<output>
				<port id="2" precision="FP32" names="/backbone/stage3/unit3/conv3/conv/Conv_output_0">
					<dim>1</dim>
					<dim>32</dim>
					<dim>108</dim>
					<dim>108</dim>
				</port>
			</output>
		</layer>
		<layer id="94" name="/backbone/stage3/unit3/Add" type="Add" version="opset1">
			<data auto_broadcast="numpy" />
			<input>
				<port id="0" precision="FP32">
					<dim>1</dim>
					<dim>32</dim>
					<dim>108</dim>
					<dim>108</dim>
				</port>
				<port id="1" precision="FP32">
					<dim>1</dim>
					<dim>32</dim>
					<dim>108</dim>
					<dim>108</dim>
				</port>
			</input>
			<output>
				<port id="2" precision="FP32" names="/backbone/stage3/unit3/Add_output_0">
					<dim>1</dim>
					<dim>32</dim>
					<dim>108</dim>
					<dim>108</dim>
				</port>
			</output>
		</layer>
		<layer id="95" name="onnx::Conv_1184" type="Const" version="opset1">
			<data element_type="f32" shape="192, 32, 1, 1" offset="219208" size="24576" />
			<output>
				<port id="0" precision="FP32" names="onnx::Conv_1184">
					<dim>192</dim>
					<dim>32</dim>
					<dim>1</dim>
					<dim>1</dim>
				</port>
			</output>
		</layer>
		<layer id="96" name="/backbone/stage4/unit1/conv1/conv/Conv/WithoutBiases" type="Convolution" version="opset1">
			<data strides="1, 1" dilations="1, 1" pads_begin="0, 0" pads_end="0, 0" auto_pad="explicit" />
			<input>
				<port id="0" precision="FP32">
					<dim>1</dim>
					<dim>32</dim>
					<dim>108</dim>
					<dim>108</dim>
				</port>
				<port id="1" precision="FP32">
					<dim>192</dim>
					<dim>32</dim>
					<dim>1</dim>
					<dim>1</dim>
				</port>
			</input>
			<output>
				<port id="2" precision="FP32">
					<dim>1</dim>
					<dim>192</dim>
					<dim>108</dim>
					<dim>108</dim>
				</port>
			</output>
		</layer>
		<layer id="97" name="Reshape_776" type="Const" version="opset1">
			<data element_type="f32" shape="1, 192, 1, 1" offset="243784" size="768" />
			<output>
				<port id="0" precision="FP32">
					<dim>1</dim>
					<dim>192</dim>
					<dim>1</dim>
					<dim>1</dim>
				</port>
			</output>
		</layer>
		<layer id="98" name="/backbone/stage4/unit1/conv1/conv/Conv" type="Add" version="opset1">
			<data auto_broadcast="numpy" />
			<input>
				<port id="0" precision="FP32">
					<dim>1</dim>
					<dim>192</dim>
					<dim>108</dim>
					<dim>108</dim>
				</port>
				<port id="1" precision="FP32">
					<dim>1</dim>
					<dim>192</dim>
					<dim>1</dim>
					<dim>1</dim>
				</port>
			</input>
			<output>
				<port id="2" precision="FP32" names="/backbone/stage4/unit1/conv1/conv/Conv_output_0">
					<dim>1</dim>
					<dim>192</dim>
					<dim>108</dim>
					<dim>108</dim>
				</port>
			</output>
		</layer>
		<layer id="99" name="/backbone/stage4/unit1/conv1/activ/Clip" type="Clamp" version="opset1">
			<data min="0" max="6" />
			<input>
				<port id="0" precision="FP32">
					<dim>1</dim>
					<dim>192</dim>
					<dim>108</dim>
					<dim>108</dim>
				</port>
			</input>
			<output>
				<port id="1" precision="FP32" names="/backbone/stage4/unit1/conv1/activ/Clip_output_0">
					<dim>1</dim>
					<dim>192</dim>
					<dim>108</dim>
					<dim>108</dim>
				</port>
			</output>
		</layer>
		<layer id="100" name="Reshape_791" type="Const" version="opset1">
			<data element_type="f32" shape="192, 1, 1, 3, 3" offset="244552" size="6912" />
			<output>
				<port id="0" precision="FP32">
					<dim>192</dim>
					<dim>1</dim>
					<dim>1</dim>
					<dim>3</dim>
					<dim>3</dim>
				</port>
			</output>
		</layer>
		<layer id="101" name="/backbone/stage4/unit1/conv2/conv/Conv/WithoutBiases" type="GroupConvolution" version="opset1">
			<data strides="2, 2" pads_begin="1, 1" pads_end="1, 1" dilations="1, 1" auto_pad="explicit" />
			<input>
				<port id="0" precision="FP32">
					<dim>1</dim>
					<dim>192</dim>
					<dim>108</dim>
					<dim>108</dim>
				</port>
				<port id="1" precision="FP32">
					<dim>192</dim>
					<dim>1</dim>
					<dim>1</dim>
					<dim>3</dim>
					<dim>3</dim>
				</port>
			</input>
			<output>
				<port id="2" precision="FP32">
					<dim>1</dim>
					<dim>192</dim>
					<dim>54</dim>
					<dim>54</dim>
				</port>
			</output>
		</layer>
		<layer id="102" name="Reshape_843" type="Const" version="opset1">
			<data element_type="f32" shape="1, 192, 1, 1" offset="251464" size="768" />
			<output>
				<port id="0" precision="FP32">
					<dim>1</dim>
					<dim>192</dim>
					<dim>1</dim>
					<dim>1</dim>
				</port>
			</output>
		</layer>
		<layer id="103" name="/backbone/stage4/unit1/conv2/conv/Conv" type="Add" version="opset1">
			<data auto_broadcast="numpy" />
			<input>
				<port id="0" precision="FP32">
					<dim>1</dim>
					<dim>192</dim>
					<dim>54</dim>
					<dim>54</dim>
				</port>
				<port id="1" precision="FP32">
					<dim>1</dim>
					<dim>192</dim>
					<dim>1</dim>
					<dim>1</dim>
				</port>
			</input>
			<output>
				<port id="2" precision="FP32" names="/backbone/stage4/unit1/conv2/conv/Conv_output_0">
					<dim>1</dim>
					<dim>192</dim>
					<dim>54</dim>
					<dim>54</dim>
				</port>
			</output>
		</layer>
		<layer id="104" name="/backbone/stage4/unit1/conv2/activ/Clip" type="Clamp" version="opset1">
			<data min="0" max="6" />
			<input>
				<port id="0" precision="FP32">
					<dim>1</dim>
					<dim>192</dim>
					<dim>54</dim>
					<dim>54</dim>
				</port>
			</input>
			<output>
				<port id="1" precision="FP32" names="/backbone/stage4/unit1/conv2/activ/Clip_output_0">
					<dim>1</dim>
					<dim>192</dim>
					<dim>54</dim>
					<dim>54</dim>
				</port>
			</output>
		</layer>
		<layer id="105" name="onnx::Conv_1190" type="Const" version="opset1">
			<data element_type="f32" shape="64, 192, 1, 1" offset="252232" size="49152" />
			<output>
				<port id="0" precision="FP32" names="onnx::Conv_1190">
					<dim>64</dim>
					<dim>192</dim>
					<dim>1</dim>
					<dim>1</dim>
				</port>
			</output>
		</layer>
		<layer id="106" name="/backbone/stage4/unit1/conv3/conv/Conv/WithoutBiases" type="Convolution" version="opset1">
			<data strides="1, 1" dilations="1, 1" pads_begin="0, 0" pads_end="0, 0" auto_pad="explicit" />
			<input>
				<port id="0" precision="FP32">
					<dim>1</dim>
					<dim>192</dim>
					<dim>54</dim>
					<dim>54</dim>
				</port>
				<port id="1" precision="FP32">
					<dim>64</dim>
					<dim>192</dim>
					<dim>1</dim>
					<dim>1</dim>
				</port>
			</input>
			<output>
				<port id="2" precision="FP32">
					<dim>1</dim>
					<dim>64</dim>
					<dim>54</dim>
					<dim>54</dim>
				</port>
			</output>
		</layer>
		<layer id="107" name="Reshape_863" type="Const" version="opset1">
			<data element_type="f32" shape="1, 64, 1, 1" offset="301384" size="256" />
			<output>
				<port id="0" precision="FP32">
					<dim>1</dim>
					<dim>64</dim>
					<dim>1</dim>
					<dim>1</dim>
				</port>
			</output>
		</layer>
		<layer id="108" name="/backbone/stage4/unit1/conv3/conv/Conv" type="Add" version="opset1">
			<data auto_broadcast="numpy" />
			<input>
				<port id="0" precision="FP32">
					<dim>1</dim>
					<dim>64</dim>
					<dim>54</dim>
					<dim>54</dim>
				</port>
				<port id="1" precision="FP32">
					<dim>1</dim>
					<dim>64</dim>
					<dim>1</dim>
					<dim>1</dim>
				</port>
			</input>
			<output>
				<port id="2" precision="FP32" names="/backbone/stage4/unit1/conv3/conv/Conv_output_0">
					<dim>1</dim>
					<dim>64</dim>
					<dim>54</dim>
					<dim>54</dim>
				</port>
			</output>
		</layer>
		<layer id="109" name="onnx::Conv_1193" type="Const" version="opset1">
			<data element_type="f32" shape="384, 64, 1, 1" offset="301640" size="98304" />
			<output>
				<port id="0" precision="FP32" names="onnx::Conv_1193">
					<dim>384</dim>
					<dim>64</dim>
					<dim>1</dim>
					<dim>1</dim>
				</port>
			</output>
		</layer>
		<layer id="110" name="/backbone/stage4/unit2/conv1/conv/Conv/WithoutBiases" type="Convolution" version="opset1">
			<data strides="1, 1" dilations="1, 1" pads_begin="0, 0" pads_end="0, 0" auto_pad="explicit" />
			<input>
				<port id="0" precision="FP32">
					<dim>1</dim>
					<dim>64</dim>
					<dim>54</dim>
					<dim>54</dim>
				</port>
				<port id="1" precision="FP32">
					<dim>384</dim>
					<dim>64</dim>
					<dim>1</dim>
					<dim>1</dim>
				</port>
			</input>
			<output>
				<port id="2" precision="FP32">
					<dim>1</dim>
					<dim>384</dim>
					<dim>54</dim>
					<dim>54</dim>
				</port>
			</output>
		</layer>
		<layer id="111" name="Reshape_879" type="Const" version="opset1">
			<data element_type="f32" shape="1, 384, 1, 1" offset="399944" size="1536" />
			<output>
				<port id="0" precision="FP32">
					<dim>1</dim>
					<dim>384</dim>
					<dim>1</dim>
					<dim>1</dim>
				</port>
			</output>
		</layer>
		<layer id="112" name="/backbone/stage4/unit2/conv1/conv/Conv" type="Add" version="opset1">
			<data auto_broadcast="numpy" />
			<input>
				<port id="0" precision="FP32">
					<dim>1</dim>
					<dim>384</dim>
					<dim>54</dim>
					<dim>54</dim>
				</port>
				<port id="1" precision="FP32">
					<dim>1</dim>
					<dim>384</dim>
					<dim>1</dim>
					<dim>1</dim>
				</port>
			</input>
			<output>
				<port id="2" precision="FP32" names="/backbone/stage4/unit2/conv1/conv/Conv_output_0">
					<dim>1</dim>
					<dim>384</dim>
					<dim>54</dim>
					<dim>54</dim>
				</port>
			</output>
		</layer>
		<layer id="113" name="/backbone/stage4/unit2/conv1/activ/Clip" type="Clamp" version="opset1">
			<data min="0" max="6" />
			<input>
				<port id="0" precision="FP32">
					<dim>1</dim>
					<dim>384</dim>
					<dim>54</dim>
					<dim>54</dim>
				</port>
			</input>
			<output>
				<port id="1" precision="FP32" names="/backbone/stage4/unit2/conv1/activ/Clip_output_0">
					<dim>1</dim>
					<dim>384</dim>
					<dim>54</dim>
					<dim>54</dim>
				</port>
			</output>
		</layer>
		<layer id="114" name="Reshape_894" type="Const" version="opset1">
			<data element_type="f32" shape="384, 1, 1, 3, 3" offset="401480" size="13824" />
			<output>
				<port id="0" precision="FP32">
					<dim>384</dim>
					<dim>1</dim>
					<dim>1</dim>
					<dim>3</dim>
					<dim>3</dim>
				</port>
			</output>
		</layer>
		<layer id="115" name="/backbone/stage4/unit2/conv2/conv/Conv/WithoutBiases" type="GroupConvolution" version="opset1">
			<data strides="1, 1" pads_begin="1, 1" pads_end="1, 1" dilations="1, 1" auto_pad="explicit" />
			<input>
				<port id="0" precision="FP32">
					<dim>1</dim>
					<dim>384</dim>
					<dim>54</dim>
					<dim>54</dim>
				</port>
				<port id="1" precision="FP32">
					<dim>384</dim>
					<dim>1</dim>
					<dim>1</dim>
					<dim>3</dim>
					<dim>3</dim>
				</port>
			</input>
			<output>
				<port id="2" precision="FP32">
					<dim>1</dim>
					<dim>384</dim>
					<dim>54</dim>
					<dim>54</dim>
				</port>
			</output>
		</layer>
		<layer id="116" name="Reshape_946" type="Const" version="opset1">
			<data element_type="f32" shape="1, 384, 1, 1" offset="415304" size="1536" />
			<output>
				<port id="0" precision="FP32">
					<dim>1</dim>
					<dim>384</dim>
					<dim>1</dim>
					<dim>1</dim>
				</port>
			</output>
		</layer>
		<layer id="117" name="/backbone/stage4/unit2/conv2/conv/Conv" type="Add" version="opset1">
			<data auto_broadcast="numpy" />
			<input>
				<port id="0" precision="FP32">
					<dim>1</dim>
					<dim>384</dim>
					<dim>54</dim>
					<dim>54</dim>
				</port>
				<port id="1" precision="FP32">
					<dim>1</dim>
					<dim>384</dim>
					<dim>1</dim>
					<dim>1</dim>
				</port>
			</input>
			<output>
				<port id="2" precision="FP32" names="/backbone/stage4/unit2/conv2/conv/Conv_output_0">
					<dim>1</dim>
					<dim>384</dim>
					<dim>54</dim>
					<dim>54</dim>
				</port>
			</output>
		</layer>
		<layer id="118" name="/backbone/stage4/unit2/conv2/activ/Clip" type="Clamp" version="opset1">
			<data min="0" max="6" />
			<input>
				<port id="0" precision="FP32">
					<dim>1</dim>
					<dim>384</dim>
					<dim>54</dim>
					<dim>54</dim>
				</port>
			</input>
			<output>
				<port id="1" precision="FP32" names="/backbone/stage4/unit2/conv2/activ/Clip_output_0">
					<dim>1</dim>
					<dim>384</dim>
					<dim>54</dim>
					<dim>54</dim>
				</port>
			</output>
		</layer>
		<layer id="119" name="onnx::Conv_1199" type="Const" version="opset1">
			<data element_type="f32" shape="64, 384, 1, 1" offset="416840" size="98304" />
			<output>
				<port id="0" precision="FP32" names="onnx::Conv_1199">
					<dim>64</dim>
					<dim>384</dim>
					<dim>1</dim>
					<dim>1</dim>
				</port>
			</output>
		</layer>
		<layer id="120" name="/backbone/stage4/unit2/conv3/conv/Conv/WithoutBiases" type="Convolution" version="opset1">
			<data strides="1, 1" dilations="1, 1" pads_begin="0, 0" pads_end="0, 0" auto_pad="explicit" />
			<input>
				<port id="0" precision="FP32">
					<dim>1</dim>
					<dim>384</dim>
					<dim>54</dim>
					<dim>54</dim>
				</port>
				<port id="1" precision="FP32">
					<dim>64</dim>
					<dim>384</dim>
					<dim>1</dim>
					<dim>1</dim>
				</port>
			</input>
			<output>
				<port id="2" precision="FP32">
					<dim>1</dim>
					<dim>64</dim>
					<dim>54</dim>
					<dim>54</dim>
				</port>
			</output>
		</layer>
		<layer id="121" name="Reshape_966" type="Const" version="opset1">
			<data element_type="f32" shape="1, 64, 1, 1" offset="515144" size="256" />
			<output>
				<port id="0" precision="FP32">
					<dim>1</dim>
					<dim>64</dim>
					<dim>1</dim>
					<dim>1</dim>
				</port>
			</output>
		</layer>
		<layer id="122" name="/backbone/stage4/unit2/conv3/conv/Conv" type="Add" version="opset1">
			<data auto_broadcast="numpy" />
			<input>
				<port id="0" precision="FP32">
					<dim>1</dim>
					<dim>64</dim>
					<dim>54</dim>
					<dim>54</dim>
				</port>
				<port id="1" precision="FP32">
					<dim>1</dim>
					<dim>64</dim>
					<dim>1</dim>
					<dim>1</dim>
				</port>
			</input>
			<output>
				<port id="2" precision="FP32" names="/backbone/stage4/unit2/conv3/conv/Conv_output_0">
					<dim>1</dim>
					<dim>64</dim>
					<dim>54</dim>
					<dim>54</dim>
				</port>
			</output>
		</layer>
		<layer id="123" name="/backbone/stage4/unit2/Add" type="Add" version="opset1">
			<data auto_broadcast="numpy" />
			<input>
				<port id="0" precision="FP32">
					<dim>1</dim>
					<dim>64</dim>
					<dim>54</dim>
					<dim>54</dim>
				</port>
				<port id="1" precision="FP32">
					<dim>1</dim>
					<dim>64</dim>
					<dim>54</dim>
					<dim>54</dim>
				</port>
			</input>
			<output>
				<port id="2" precision="FP32" names="/backbone/stage4/unit2/Add_output_0">
					<dim>1</dim>
					<dim>64</dim>
					<dim>54</dim>
					<dim>54</dim>
				</port>
			</output>
		</layer>
		<layer id="124" name="onnx::Conv_1202" type="Const" version="opset1">
			<data element_type="f32" shape="384, 64, 1, 1" offset="515400" size="98304" />
			<output>
				<port id="0" precision="FP32" names="onnx::Conv_1202">
					<dim>384</dim>
					<dim>64</dim>
					<dim>1</dim>
					<dim>1</dim>
				</port>
			</output>
		</layer>
		<layer id="125" name="/backbone/stage4/unit3/conv1/conv/Conv/WithoutBiases" type="Convolution" version="opset1">
			<data strides="1, 1" dilations="1, 1" pads_begin="0, 0" pads_end="0, 0" auto_pad="explicit" />
			<input>
				<port id="0" precision="FP32">
					<dim>1</dim>
					<dim>64</dim>
					<dim>54</dim>
					<dim>54</dim>
				</port>
				<port id="1" precision="FP32">
					<dim>384</dim>
					<dim>64</dim>
					<dim>1</dim>
					<dim>1</dim>
				</port>
			</input>
			<output>
				<port id="2" precision="FP32">
					<dim>1</dim>
					<dim>384</dim>
					<dim>54</dim>
					<dim>54</dim>
				</port>
			</output>
		</layer>
		<layer id="126" name="Reshape_983" type="Const" version="opset1">
			<data element_type="f32" shape="1, 384, 1, 1" offset="613704" size="1536" />
			<output>
				<port id="0" precision="FP32">
					<dim>1</dim>
					<dim>384</dim>
					<dim>1</dim>
					<dim>1</dim>
				</port>
			</output>
		</layer>
		<layer id="127" name="/backbone/stage4/unit3/conv1/conv/Conv" type="Add" version="opset1">
			<data auto_broadcast="numpy" />
			<input>
				<port id="0" precision="FP32">
					<dim>1</dim>
					<dim>384</dim>
					<dim>54</dim>
					<dim>54</dim>
				</port>
				<port id="1" precision="FP32">
					<dim>1</dim>
					<dim>384</dim>
					<dim>1</dim>
					<dim>1</dim>
				</port>
			</input>
			<output>
				<port id="2" precision="FP32" names="/backbone/stage4/unit3/conv1/conv/Conv_output_0">
					<dim>1</dim>
					<dim>384</dim>
					<dim>54</dim>
					<dim>54</dim>
				</port>
			</output>
		</layer>
		<layer id="128" name="/backbone/stage4/unit3/conv1/activ/Clip" type="Clamp" version="opset1">
			<data min="0" max="6" />
			<input>
				<port id="0" precision="FP32">
					<dim>1</dim>
					<dim>384</dim>
					<dim>54</dim>
					<dim>54</dim>
				</port>
			</input>
			<output>
				<port id="1" precision="FP32" names="/backbone/stage4/unit3/conv1/activ/Clip_output_0">
					<dim>1</dim>
					<dim>384</dim>
					<dim>54</dim>
					<dim>54</dim>
				</port>
			</output>
		</layer>
		<layer id="129" name="Reshape_998" type="Const" version="opset1">
			<data element_type="f32" shape="384, 1, 1, 3, 3" offset="615240" size="13824" />
			<output>
				<port id="0" precision="FP32">
					<dim>384</dim>
					<dim>1</dim>
					<dim>1</dim>
					<dim>3</dim>
					<dim>3</dim>
				</port>
			</output>
		</layer>
		<layer id="130" name="/backbone/stage4/unit3/conv2/conv/Conv/WithoutBiases" type="GroupConvolution" version="opset1">
			<data strides="1, 1" pads_begin="1, 1" pads_end="1, 1" dilations="1, 1" auto_pad="explicit" />
			<input>
				<port id="0" precision="FP32">
					<dim>1</dim>
					<dim>384</dim>
					<dim>54</dim>
					<dim>54</dim>
				</port>
				<port id="1" precision="FP32">
					<dim>384</dim>
					<dim>1</dim>
					<dim>1</dim>
					<dim>3</dim>
					<dim>3</dim>
				</port>
			</input>
			<output>
				<port id="2" precision="FP32">
					<dim>1</dim>
					<dim>384</dim>
					<dim>54</dim>
					<dim>54</dim>
				</port>
			</output>
		</layer>
		<layer id="131" name="Reshape_1050" type="Const" version="opset1">
			<data element_type="f32" shape="1, 384, 1, 1" offset="629064" size="1536" />
			<output>
				<port id="0" precision="FP32">
					<dim>1</dim>
					<dim>384</dim>
					<dim>1</dim>
					<dim>1</dim>
				</port>
			</output>
		</layer>
		<layer id="132" name="/backbone/stage4/unit3/conv2/conv/Conv" type="Add" version="opset1">
			<data auto_broadcast="numpy" />
			<input>
				<port id="0" precision="FP32">
					<dim>1</dim>
					<dim>384</dim>
					<dim>54</dim>
					<dim>54</dim>
				</port>
				<port id="1" precision="FP32">
					<dim>1</dim>
					<dim>384</dim>
					<dim>1</dim>
					<dim>1</dim>
				</port>
			</input>
			<output>
				<port id="2" precision="FP32" names="/backbone/stage4/unit3/conv2/conv/Conv_output_0">
					<dim>1</dim>
					<dim>384</dim>
					<dim>54</dim>
					<dim>54</dim>
				</port>
			</output>
		</layer>
		<layer id="133" name="/backbone/stage4/unit3/conv2/activ/Clip" type="Clamp" version="opset1">
			<data min="0" max="6" />
			<input>
				<port id="0" precision="FP32">
					<dim>1</dim>
					<dim>384</dim>
					<dim>54</dim>
					<dim>54</dim>
				</port>
			</input>
			<output>
				<port id="1" precision="FP32" names="/backbone/stage4/unit3/conv2/activ/Clip_output_0">
					<dim>1</dim>
					<dim>384</dim>
					<dim>54</dim>
					<dim>54</dim>
				</port>
			</output>
		</layer>
		<layer id="134" name="onnx::Conv_1208" type="Const" version="opset1">
			<data element_type="f32" shape="64, 384, 1, 1" offset="630600" size="98304" />
			<output>
				<port id="0" precision="FP32" names="onnx::Conv_1208">
					<dim>64</dim>
					<dim>384</dim>
					<dim>1</dim>
					<dim>1</dim>
				</port>
			</output>
		</layer>
		<layer id="135" name="/backbone/stage4/unit3/conv3/conv/Conv/WithoutBiases" type="Convolution" version="opset1">
			<data strides="1, 1" dilations="1, 1" pads_begin="0, 0" pads_end="0, 0" auto_pad="explicit" />
			<input>
				<port id="0" precision="FP32">
					<dim>1</dim>
					<dim>384</dim>
					<dim>54</dim>
					<dim>54</dim>
				</port>
				<port id="1" precision="FP32">
					<dim>64</dim>
					<dim>384</dim>
					<dim>1</dim>
					<dim>1</dim>
				</port>
			</input>
			<output>
				<port id="2" precision="FP32">
					<dim>1</dim>
					<dim>64</dim>
					<dim>54</dim>
					<dim>54</dim>
				</port>
			</output>
		</layer>
		<layer id="136" name="Reshape_1070" type="Const" version="opset1">
			<data element_type="f32" shape="1, 64, 1, 1" offset="728904" size="256" />
			<output>
				<port id="0" precision="FP32">
					<dim>1</dim>
					<dim>64</dim>
					<dim>1</dim>
					<dim>1</dim>
				</port>
			</output>
		</layer>
		<layer id="137" name="/backbone/stage4/unit3/conv3/conv/Conv" type="Add" version="opset1">
			<data auto_broadcast="numpy" />
			<input>
				<port id="0" precision="FP32">
					<dim>1</dim>
					<dim>64</dim>
					<dim>54</dim>
					<dim>54</dim>
				</port>
				<port id="1" precision="FP32">
					<dim>1</dim>
					<dim>64</dim>
					<dim>1</dim>
					<dim>1</dim>
				</port>
			</input>
			<output>
				<port id="2" precision="FP32" names="/backbone/stage4/unit3/conv3/conv/Conv_output_0">
					<dim>1</dim>
					<dim>64</dim>
					<dim>54</dim>
					<dim>54</dim>
				</port>
			</output>
		</layer>
		<layer id="138" name="/backbone/stage4/unit3/Add" type="Add" version="opset1">
			<data auto_broadcast="numpy" />
			<input>
				<port id="0" precision="FP32">
					<dim>1</dim>
					<dim>64</dim>
					<dim>54</dim>
					<dim>54</dim>
				</port>
				<port id="1" precision="FP32">
					<dim>1</dim>
					<dim>64</dim>
					<dim>54</dim>
					<dim>54</dim>
				</port>
			</input>
			<output>
				<port id="2" precision="FP32" names="/backbone/stage4/unit3/Add_output_0">
					<dim>1</dim>
					<dim>64</dim>
					<dim>54</dim>
					<dim>54</dim>
				</port>
			</output>
		</layer>
		<layer id="139" name="onnx::Conv_1211" type="Const" version="opset1">
			<data element_type="f32" shape="384, 64, 1, 1" offset="729160" size="98304" />
			<output>
				<port id="0" precision="FP32" names="onnx::Conv_1211">
					<dim>384</dim>
					<dim>64</dim>
					<dim>1</dim>
					<dim>1</dim>
				</port>
			</output>
		</layer>
		<layer id="140" name="/backbone/stage4/unit4/conv1/conv/Conv/WithoutBiases" type="Convolution" version="opset1">
			<data strides="1, 1" dilations="1, 1" pads_begin="0, 0" pads_end="0, 0" auto_pad="explicit" />
			<input>
				<port id="0" precision="FP32">
					<dim>1</dim>
					<dim>64</dim>
					<dim>54</dim>
					<dim>54</dim>
				</port>
				<port id="1" precision="FP32">
					<dim>384</dim>
					<dim>64</dim>
					<dim>1</dim>
					<dim>1</dim>
				</port>
			</input>
			<output>
				<port id="2" precision="FP32">
					<dim>1</dim>
					<dim>384</dim>
					<dim>54</dim>
					<dim>54</dim>
				</port>
			</output>
		</layer>
		<layer id="141" name="Reshape_1087" type="Const" version="opset1">
			<data element_type="f32" shape="1, 384, 1, 1" offset="827464" size="1536" />
			<output>
				<port id="0" precision="FP32">
					<dim>1</dim>
					<dim>384</dim>
					<dim>1</dim>
					<dim>1</dim>
				</port>
			</output>
		</layer>
		<layer id="142" name="/backbone/stage4/unit4/conv1/conv/Conv" type="Add" version="opset1">
			<data auto_broadcast="numpy" />
			<input>
				<port id="0" precision="FP32">
					<dim>1</dim>
					<dim>384</dim>
					<dim>54</dim>
					<dim>54</dim>
				</port>
				<port id="1" precision="FP32">
					<dim>1</dim>
					<dim>384</dim>
					<dim>1</dim>
					<dim>1</dim>
				</port>
			</input>
			<output>
				<port id="2" precision="FP32" names="/backbone/stage4/unit4/conv1/conv/Conv_output_0">
					<dim>1</dim>
					<dim>384</dim>
					<dim>54</dim>
					<dim>54</dim>
				</port>
			</output>
		</layer>
		<layer id="143" name="/backbone/stage4/unit4/conv1/activ/Clip" type="Clamp" version="opset1">
			<data min="0" max="6" />
			<input>
				<port id="0" precision="FP32">
					<dim>1</dim>
					<dim>384</dim>
					<dim>54</dim>
					<dim>54</dim>
				</port>
			</input>
			<output>
				<port id="1" precision="FP32" names="/backbone/stage4/unit4/conv1/activ/Clip_output_0">
					<dim>1</dim>
					<dim>384</dim>
					<dim>54</dim>
					<dim>54</dim>
				</port>
			</output>
		</layer>
		<layer id="144" name="Reshape_1102" type="Const" version="opset1">
			<data element_type="f32" shape="384, 1, 1, 3, 3" offset="829000" size="13824" />
			<output>
				<port id="0" precision="FP32">
					<dim>384</dim>
					<dim>1</dim>
					<dim>1</dim>
					<dim>3</dim>
					<dim>3</dim>
				</port>
			</output>
		</layer>
		<layer id="145" name="/backbone/stage4/unit4/conv2/conv/Conv/WithoutBiases" type="GroupConvolution" version="opset1">
			<data strides="1, 1" pads_begin="1, 1" pads_end="1, 1" dilations="1, 1" auto_pad="explicit" />
			<input>
				<port id="0" precision="FP32">
					<dim>1</dim>
					<dim>384</dim>
					<dim>54</dim>
					<dim>54</dim>
				</port>
				<port id="1" precision="FP32">
					<dim>384</dim>
					<dim>1</dim>
					<dim>1</dim>
					<dim>3</dim>
					<dim>3</dim>
				</port>
			</input>
			<output>
				<port id="2" precision="FP32">
					<dim>1</dim>
					<dim>384</dim>
					<dim>54</dim>
					<dim>54</dim>
				</port>
			</output>
		</layer>
		<layer id="146" name="Reshape_1154" type="Const" version="opset1">
			<data element_type="f32" shape="1, 384, 1, 1" offset="842824" size="1536" />
			<output>
				<port id="0" precision="FP32">
					<dim>1</dim>
					<dim>384</dim>
					<dim>1</dim>
					<dim>1</dim>
				</port>
			</output>
		</layer>
		<layer id="147" name="/backbone/stage4/unit4/conv2/conv/Conv" type="Add" version="opset1">
			<data auto_broadcast="numpy" />
			<input>
				<port id="0" precision="FP32">
					<dim>1</dim>
					<dim>384</dim>
					<dim>54</dim>
					<dim>54</dim>
				</port>
				<port id="1" precision="FP32">
					<dim>1</dim>
					<dim>384</dim>
					<dim>1</dim>
					<dim>1</dim>
				</port>
			</input>
			<output>
				<port id="2" precision="FP32" names="/backbone/stage4/unit4/conv2/conv/Conv_output_0">
					<dim>1</dim>
					<dim>384</dim>
					<dim>54</dim>
					<dim>54</dim>
				</port>
			</output>
		</layer>
		<layer id="148" name="/backbone/stage4/unit4/conv2/activ/Clip" type="Clamp" version="opset1">
			<data min="0" max="6" />
			<input>
				<port id="0" precision="FP32">
					<dim>1</dim>
					<dim>384</dim>
					<dim>54</dim>
					<dim>54</dim>
				</port>
			</input>
			<output>
				<port id="1" precision="FP32" names="/backbone/stage4/unit4/conv2/activ/Clip_output_0">
					<dim>1</dim>
					<dim>384</dim>
					<dim>54</dim>
					<dim>54</dim>
				</port>
			</output>
		</layer>
		<layer id="149" name="onnx::Conv_1217" type="Const" version="opset1">
			<data element_type="f32" shape="64, 384, 1, 1" offset="844360" size="98304" />
			<output>
				<port id="0" precision="FP32" names="onnx::Conv_1217">
					<dim>64</dim>
					<dim>384</dim>
					<dim>1</dim>
					<dim>1</dim>
				</port>
			</output>
		</layer>
		<layer id="150" name="/backbone/stage4/unit4/conv3/conv/Conv/WithoutBiases" type="Convolution" version="opset1">
			<data strides="1, 1" dilations="1, 1" pads_begin="0, 0" pads_end="0, 0" auto_pad="explicit" />
			<input>
				<port id="0" precision="FP32">
					<dim>1</dim>
					<dim>384</dim>
					<dim>54</dim>
					<dim>54</dim>
				</port>
				<port id="1" precision="FP32">
					<dim>64</dim>
					<dim>384</dim>
					<dim>1</dim>
					<dim>1</dim>
				</port>
			</input>
			<output>
				<port id="2" precision="FP32">
					<dim>1</dim>
					<dim>64</dim>
					<dim>54</dim>
					<dim>54</dim>
				</port>
			</output>
		</layer>
		<layer id="151" name="Reshape_1174" type="Const" version="opset1">
			<data element_type="f32" shape="1, 64, 1, 1" offset="942664" size="256" />
			<output>
				<port id="0" precision="FP32">
					<dim>1</dim>
					<dim>64</dim>
					<dim>1</dim>
					<dim>1</dim>
				</port>
			</output>
		</layer>
		<layer id="152" name="/backbone/stage4/unit4/conv3/conv/Conv" type="Add" version="opset1">
			<data auto_broadcast="numpy" />
			<input>
				<port id="0" precision="FP32">
					<dim>1</dim>
					<dim>64</dim>
					<dim>54</dim>
					<dim>54</dim>
				</port>
				<port id="1" precision="FP32">
					<dim>1</dim>
					<dim>64</dim>
					<dim>1</dim>
					<dim>1</dim>
				</port>
			</input>
			<output>
				<port id="2" precision="FP32" names="/backbone/stage4/unit4/conv3/conv/Conv_output_0">
					<dim>1</dim>
					<dim>64</dim>
					<dim>54</dim>
					<dim>54</dim>
				</port>
			</output>
		</layer>
		<layer id="153" name="/backbone/stage4/unit4/Add" type="Add" version="opset1">
			<data auto_broadcast="numpy" />
			<input>
				<port id="0" precision="FP32">
					<dim>1</dim>
					<dim>64</dim>
					<dim>54</dim>
					<dim>54</dim>
				</port>
				<port id="1" precision="FP32">
					<dim>1</dim>
					<dim>64</dim>
					<dim>54</dim>
					<dim>54</dim>
				</port>
			</input>
			<output>
				<port id="2" precision="FP32" names="/backbone/stage4/unit4/Add_output_0">
					<dim>1</dim>
					<dim>64</dim>
					<dim>54</dim>
					<dim>54</dim>
				</port>
			</output>
		</layer>
		<layer id="154" name="onnx::Conv_1220" type="Const" version="opset1">
			<data element_type="f32" shape="384, 64, 1, 1" offset="942920" size="98304" />
			<output>
				<port id="0" precision="FP32" names="onnx::Conv_1220">
					<dim>384</dim>
					<dim>64</dim>
					<dim>1</dim>
					<dim>1</dim>
				</port>
			</output>
		</layer>
		<layer id="155" name="/backbone/stage4/unit5/conv1/conv/Conv/WithoutBiases" type="Convolution" version="opset1">
			<data strides="1, 1" dilations="1, 1" pads_begin="0, 0" pads_end="0, 0" auto_pad="explicit" />
			<input>
				<port id="0" precision="FP32">
					<dim>1</dim>
					<dim>64</dim>
					<dim>54</dim>
					<dim>54</dim>
				</port>
				<port id="1" precision="FP32">
					<dim>384</dim>
					<dim>64</dim>
					<dim>1</dim>
					<dim>1</dim>
				</port>
			</input>
			<output>
				<port id="2" precision="FP32">
					<dim>1</dim>
					<dim>384</dim>
					<dim>54</dim>
					<dim>54</dim>
				</port>
			</output>
		</layer>
		<layer id="156" name="Reshape_1191" type="Const" version="opset1">
			<data element_type="f32" shape="1, 384, 1, 1" offset="1041224" size="1536" />
			<output>
				<port id="0" precision="FP32">
					<dim>1</dim>
					<dim>384</dim>
					<dim>1</dim>
					<dim>1</dim>
				</port>
			</output>
		</layer>
		<layer id="157" name="/backbone/stage4/unit5/conv1/conv/Conv" type="Add" version="opset1">
			<data auto_broadcast="numpy" />
			<input>
				<port id="0" precision="FP32">
					<dim>1</dim>
					<dim>384</dim>
					<dim>54</dim>
					<dim>54</dim>
				</port>
				<port id="1" precision="FP32">
					<dim>1</dim>
					<dim>384</dim>
					<dim>1</dim>
					<dim>1</dim>
				</port>
			</input>
			<output>
				<port id="2" precision="FP32" names="/backbone/stage4/unit5/conv1/conv/Conv_output_0">
					<dim>1</dim>
					<dim>384</dim>
					<dim>54</dim>
					<dim>54</dim>
				</port>
			</output>
		</layer>
		<layer id="158" name="/backbone/stage4/unit5/conv1/activ/Clip" type="Clamp" version="opset1">
			<data min="0" max="6" />
			<input>
				<port id="0" precision="FP32">
					<dim>1</dim>
					<dim>384</dim>
					<dim>54</dim>
					<dim>54</dim>
				</port>
			</input>
			<output>
				<port id="1" precision="FP32" names="/backbone/stage4/unit5/conv1/activ/Clip_output_0">
					<dim>1</dim>
					<dim>384</dim>
					<dim>54</dim>
					<dim>54</dim>
				</port>
			</output>
		</layer>
		<layer id="159" name="Reshape_1206" type="Const" version="opset1">
			<data element_type="f32" shape="384, 1, 1, 3, 3" offset="1042760" size="13824" />
			<output>
				<port id="0" precision="FP32">
					<dim>384</dim>
					<dim>1</dim>
					<dim>1</dim>
					<dim>3</dim>
					<dim>3</dim>
				</port>
			</output>
		</layer>
		<layer id="160" name="/backbone/stage4/unit5/conv2/conv/Conv/WithoutBiases" type="GroupConvolution" version="opset1">
			<data strides="1, 1" pads_begin="1, 1" pads_end="1, 1" dilations="1, 1" auto_pad="explicit" />
			<input>
				<port id="0" precision="FP32">
					<dim>1</dim>
					<dim>384</dim>
					<dim>54</dim>
					<dim>54</dim>
				</port>
				<port id="1" precision="FP32">
					<dim>384</dim>
					<dim>1</dim>
					<dim>1</dim>
					<dim>3</dim>
					<dim>3</dim>
				</port>
			</input>
			<output>
				<port id="2" precision="FP32">
					<dim>1</dim>
					<dim>384</dim>
					<dim>54</dim>
					<dim>54</dim>
				</port>
			</output>
		</layer>
		<layer id="161" name="Reshape_1258" type="Const" version="opset1">
			<data element_type="f32" shape="1, 384, 1, 1" offset="1056584" size="1536" />
			<output>
				<port id="0" precision="FP32">
					<dim>1</dim>
					<dim>384</dim>
					<dim>1</dim>
					<dim>1</dim>
				</port>
			</output>
		</layer>
		<layer id="162" name="/backbone/stage4/unit5/conv2/conv/Conv" type="Add" version="opset1">
			<data auto_broadcast="numpy" />
			<input>
				<port id="0" precision="FP32">
					<dim>1</dim>
					<dim>384</dim>
					<dim>54</dim>
					<dim>54</dim>
				</port>
				<port id="1" precision="FP32">
					<dim>1</dim>
					<dim>384</dim>
					<dim>1</dim>
					<dim>1</dim>
				</port>
			</input>
			<output>
				<port id="2" precision="FP32" names="/backbone/stage4/unit5/conv2/conv/Conv_output_0">
					<dim>1</dim>
					<dim>384</dim>
					<dim>54</dim>
					<dim>54</dim>
				</port>
			</output>
		</layer>
		<layer id="163" name="/backbone/stage4/unit5/conv2/activ/Clip" type="Clamp" version="opset1">
			<data min="0" max="6" />
			<input>
				<port id="0" precision="FP32">
					<dim>1</dim>
					<dim>384</dim>
					<dim>54</dim>
					<dim>54</dim>
				</port>
			</input>
			<output>
				<port id="1" precision="FP32" names="/backbone/stage4/unit5/conv2/activ/Clip_output_0">
					<dim>1</dim>
					<dim>384</dim>
					<dim>54</dim>
					<dim>54</dim>
				</port>
			</output>
		</layer>
		<layer id="164" name="onnx::Conv_1226" type="Const" version="opset1">
			<data element_type="f32" shape="96, 384, 1, 1" offset="1058120" size="147456" />
			<output>
				<port id="0" precision="FP32" names="onnx::Conv_1226">
					<dim>96</dim>
					<dim>384</dim>
					<dim>1</dim>
					<dim>1</dim>
				</port>
			</output>
		</layer>
		<layer id="165" name="/backbone/stage4/unit5/conv3/conv/Conv/WithoutBiases" type="Convolution" version="opset1">
			<data strides="1, 1" dilations="1, 1" pads_begin="0, 0" pads_end="0, 0" auto_pad="explicit" />
			<input>
				<port id="0" precision="FP32">
					<dim>1</dim>
					<dim>384</dim>
					<dim>54</dim>
					<dim>54</dim>
				</port>
				<port id="1" precision="FP32">
					<dim>96</dim>
					<dim>384</dim>
					<dim>1</dim>
					<dim>1</dim>
				</port>
			</input>
			<output>
				<port id="2" precision="FP32">
					<dim>1</dim>
					<dim>96</dim>
					<dim>54</dim>
					<dim>54</dim>
				</port>
			</output>
		</layer>
		<layer id="166" name="Reshape_1278" type="Const" version="opset1">
			<data element_type="f32" shape="1, 96, 1, 1" offset="1205576" size="384" />
			<output>
				<port id="0" precision="FP32">
					<dim>1</dim>
					<dim>96</dim>
					<dim>1</dim>
					<dim>1</dim>
				</port>
			</output>
		</layer>
		<layer id="167" name="/backbone/stage4/unit5/conv3/conv/Conv" type="Add" version="opset1">
			<data auto_broadcast="numpy" />
			<input>
				<port id="0" precision="FP32">
					<dim>1</dim>
					<dim>96</dim>
					<dim>54</dim>
					<dim>54</dim>
				</port>
				<port id="1" precision="FP32">
					<dim>1</dim>
					<dim>96</dim>
					<dim>1</dim>
					<dim>1</dim>
				</port>
			</input>
			<output>
				<port id="2" precision="FP32" names="/backbone/stage4/unit5/conv3/conv/Conv_output_0">
					<dim>1</dim>
					<dim>96</dim>
					<dim>54</dim>
					<dim>54</dim>
				</port>
			</output>
		</layer>
		<layer id="168" name="onnx::Conv_1229" type="Const" version="opset1">
			<data element_type="f32" shape="576, 96, 1, 1" offset="1205960" size="221184" />
			<output>
				<port id="0" precision="FP32" names="onnx::Conv_1229">
					<dim>576</dim>
					<dim>96</dim>
					<dim>1</dim>
					<dim>1</dim>
				</port>
			</output>
		</layer>
		<layer id="169" name="/backbone/stage4/unit6/conv1/conv/Conv/WithoutBiases" type="Convolution" version="opset1">
			<data strides="1, 1" dilations="1, 1" pads_begin="0, 0" pads_end="0, 0" auto_pad="explicit" />
			<input>
				<port id="0" precision="FP32">
					<dim>1</dim>
					<dim>96</dim>
					<dim>54</dim>
					<dim>54</dim>
				</port>
				<port id="1" precision="FP32">
					<dim>576</dim>
					<dim>96</dim>
					<dim>1</dim>
					<dim>1</dim>
				</port>
			</input>
			<output>
				<port id="2" precision="FP32">
					<dim>1</dim>
					<dim>576</dim>
					<dim>54</dim>
					<dim>54</dim>
				</port>
			</output>
		</layer>
		<layer id="170" name="Reshape_1294" type="Const" version="opset1">
			<data element_type="f32" shape="1, 576, 1, 1" offset="1427144" size="2304" />
			<output>
				<port id="0" precision="FP32">
					<dim>1</dim>
					<dim>576</dim>
					<dim>1</dim>
					<dim>1</dim>
				</port>
			</output>
		</layer>
		<layer id="171" name="/backbone/stage4/unit6/conv1/conv/Conv" type="Add" version="opset1">
			<data auto_broadcast="numpy" />
			<input>
				<port id="0" precision="FP32">
					<dim>1</dim>
					<dim>576</dim>
					<dim>54</dim>
					<dim>54</dim>
				</port>
				<port id="1" precision="FP32">
					<dim>1</dim>
					<dim>576</dim>
					<dim>1</dim>
					<dim>1</dim>
				</port>
			</input>
			<output>
				<port id="2" precision="FP32" names="/backbone/stage4/unit6/conv1/conv/Conv_output_0">
					<dim>1</dim>
					<dim>576</dim>
					<dim>54</dim>
					<dim>54</dim>
				</port>
			</output>
		</layer>
		<layer id="172" name="/backbone/stage4/unit6/conv1/activ/Clip" type="Clamp" version="opset1">
			<data min="0" max="6" />
			<input>
				<port id="0" precision="FP32">
					<dim>1</dim>
					<dim>576</dim>
					<dim>54</dim>
					<dim>54</dim>
				</port>
			</input>
			<output>
				<port id="1" precision="FP32" names="/backbone/stage4/unit6/conv1/activ/Clip_output_0">
					<dim>1</dim>
					<dim>576</dim>
					<dim>54</dim>
					<dim>54</dim>
				</port>
			</output>
		</layer>
		<layer id="173" name="Reshape_1309" type="Const" version="opset1">
			<data element_type="f32" shape="576, 1, 1, 3, 3" offset="1429448" size="20736" />
			<output>
				<port id="0" precision="FP32">
					<dim>576</dim>
					<dim>1</dim>
					<dim>1</dim>
					<dim>3</dim>
					<dim>3</dim>
				</port>
			</output>
		</layer>
		<layer id="174" name="/backbone/stage4/unit6/conv2/conv/Conv/WithoutBiases" type="GroupConvolution" version="opset1">
			<data strides="1, 1" pads_begin="1, 1" pads_end="1, 1" dilations="1, 1" auto_pad="explicit" />
			<input>
				<port id="0" precision="FP32">
					<dim>1</dim>
					<dim>576</dim>
					<dim>54</dim>
					<dim>54</dim>
				</port>
				<port id="1" precision="FP32">
					<dim>576</dim>
					<dim>1</dim>
					<dim>1</dim>
					<dim>3</dim>
					<dim>3</dim>
				</port>
			</input>
			<output>
				<port id="2" precision="FP32">
					<dim>1</dim>
					<dim>576</dim>
					<dim>54</dim>
					<dim>54</dim>
				</port>
			</output>
		</layer>
		<layer id="175" name="Reshape_1361" type="Const" version="opset1">
			<data element_type="f32" shape="1, 576, 1, 1" offset="1450184" size="2304" />
			<output>
				<port id="0" precision="FP32">
					<dim>1</dim>
					<dim>576</dim>
					<dim>1</dim>
					<dim>1</dim>
				</port>
			</output>
		</layer>
		<layer id="176" name="/backbone/stage4/unit6/conv2/conv/Conv" type="Add" version="opset1">
			<data auto_broadcast="numpy" />
			<input>
				<port id="0" precision="FP32">
					<dim>1</dim>
					<dim>576</dim>
					<dim>54</dim>
					<dim>54</dim>
				</port>
				<port id="1" precision="FP32">
					<dim>1</dim>
					<dim>576</dim>
					<dim>1</dim>
					<dim>1</dim>
				</port>
			</input>
			<output>
				<port id="2" precision="FP32" names="/backbone/stage4/unit6/conv2/conv/Conv_output_0">
					<dim>1</dim>
					<dim>576</dim>
					<dim>54</dim>
					<dim>54</dim>
				</port>
			</output>
		</layer>
		<layer id="177" name="/backbone/stage4/unit6/conv2/activ/Clip" type="Clamp" version="opset1">
			<data min="0" max="6" />
			<input>
				<port id="0" precision="FP32">
					<dim>1</dim>
					<dim>576</dim>
					<dim>54</dim>
					<dim>54</dim>
				</port>
			</input>
			<output>
				<port id="1" precision="FP32" names="/backbone/stage4/unit6/conv2/activ/Clip_output_0">
					<dim>1</dim>
					<dim>576</dim>
					<dim>54</dim>
					<dim>54</dim>
				</port>
			</output>
		</layer>
		<layer id="178" name="onnx::Conv_1235" type="Const" version="opset1">
			<data element_type="f32" shape="96, 576, 1, 1" offset="1452488" size="221184" />
			<output>
				<port id="0" precision="FP32" names="onnx::Conv_1235">
					<dim>96</dim>
					<dim>576</dim>
					<dim>1</dim>
					<dim>1</dim>
				</port>
			</output>
		</layer>
		<layer id="179" name="/backbone/stage4/unit6/conv3/conv/Conv/WithoutBiases" type="Convolution" version="opset1">
			<data strides="1, 1" dilations="1, 1" pads_begin="0, 0" pads_end="0, 0" auto_pad="explicit" />
			<input>
				<port id="0" precision="FP32">
					<dim>1</dim>
					<dim>576</dim>
					<dim>54</dim>
					<dim>54</dim>
				</port>
				<port id="1" precision="FP32">
					<dim>96</dim>
					<dim>576</dim>
					<dim>1</dim>
					<dim>1</dim>
				</port>
			</input>
			<output>
				<port id="2" precision="FP32">
					<dim>1</dim>
					<dim>96</dim>
					<dim>54</dim>
					<dim>54</dim>
				</port>
			</output>
		</layer>
		<layer id="180" name="Reshape_1381" type="Const" version="opset1">
			<data element_type="f32" shape="1, 96, 1, 1" offset="1673672" size="384" />
			<output>
				<port id="0" precision="FP32">
					<dim>1</dim>
					<dim>96</dim>
					<dim>1</dim>
					<dim>1</dim>
				</port>
			</output>
		</layer>
		<layer id="181" name="/backbone/stage4/unit6/conv3/conv/Conv" type="Add" version="opset1">
			<data auto_broadcast="numpy" />
			<input>
				<port id="0" precision="FP32">
					<dim>1</dim>
					<dim>96</dim>
					<dim>54</dim>
					<dim>54</dim>
				</port>
				<port id="1" precision="FP32">
					<dim>1</dim>
					<dim>96</dim>
					<dim>1</dim>
					<dim>1</dim>
				</port>
			</input>
			<output>
				<port id="2" precision="FP32" names="/backbone/stage4/unit6/conv3/conv/Conv_output_0">
					<dim>1</dim>
					<dim>96</dim>
					<dim>54</dim>
					<dim>54</dim>
				</port>
			</output>
		</layer>
		<layer id="182" name="/backbone/stage4/unit6/Add" type="Add" version="opset1">
			<data auto_broadcast="numpy" />
			<input>
				<port id="0" precision="FP32">
					<dim>1</dim>
					<dim>96</dim>
					<dim>54</dim>
					<dim>54</dim>
				</port>
				<port id="1" precision="FP32">
					<dim>1</dim>
					<dim>96</dim>
					<dim>54</dim>
					<dim>54</dim>
				</port>
			</input>
			<output>
				<port id="2" precision="FP32" names="/backbone/stage4/unit6/Add_output_0">
					<dim>1</dim>
					<dim>96</dim>
					<dim>54</dim>
					<dim>54</dim>
				</port>
			</output>
		</layer>
		<layer id="183" name="onnx::Conv_1238" type="Const" version="opset1">
			<data element_type="f32" shape="576, 96, 1, 1" offset="1674056" size="221184" />
			<output>
				<port id="0" precision="FP32" names="onnx::Conv_1238">
					<dim>576</dim>
					<dim>96</dim>
					<dim>1</dim>
					<dim>1</dim>
				</port>
			</output>
		</layer>
		<layer id="184" name="/backbone/stage4/unit7/conv1/conv/Conv/WithoutBiases" type="Convolution" version="opset1">
			<data strides="1, 1" dilations="1, 1" pads_begin="0, 0" pads_end="0, 0" auto_pad="explicit" />
			<input>
				<port id="0" precision="FP32">
					<dim>1</dim>
					<dim>96</dim>
					<dim>54</dim>
					<dim>54</dim>
				</port>
				<port id="1" precision="FP32">
					<dim>576</dim>
					<dim>96</dim>
					<dim>1</dim>
					<dim>1</dim>
				</port>
			</input>
			<output>
				<port id="2" precision="FP32">
					<dim>1</dim>
					<dim>576</dim>
					<dim>54</dim>
					<dim>54</dim>
				</port>
			</output>
		</layer>
		<layer id="185" name="Reshape_1398" type="Const" version="opset1">
			<data element_type="f32" shape="1, 576, 1, 1" offset="1895240" size="2304" />
			<output>
				<port id="0" precision="FP32">
					<dim>1</dim>
					<dim>576</dim>
					<dim>1</dim>
					<dim>1</dim>
				</port>
			</output>
		</layer>
		<layer id="186" name="/backbone/stage4/unit7/conv1/conv/Conv" type="Add" version="opset1">
			<data auto_broadcast="numpy" />
			<input>
				<port id="0" precision="FP32">
					<dim>1</dim>
					<dim>576</dim>
					<dim>54</dim>
					<dim>54</dim>
				</port>
				<port id="1" precision="FP32">
					<dim>1</dim>
					<dim>576</dim>
					<dim>1</dim>
					<dim>1</dim>
				</port>
			</input>
			<output>
				<port id="2" precision="FP32" names="/backbone/stage4/unit7/conv1/conv/Conv_output_0">
					<dim>1</dim>
					<dim>576</dim>
					<dim>54</dim>
					<dim>54</dim>
				</port>
			</output>
		</layer>
		<layer id="187" name="/backbone/stage4/unit7/conv1/activ/Clip" type="Clamp" version="opset1">
			<data min="0" max="6" />
			<input>
				<port id="0" precision="FP32">
					<dim>1</dim>
					<dim>576</dim>
					<dim>54</dim>
					<dim>54</dim>
				</port>
			</input>
			<output>
				<port id="1" precision="FP32" names="/backbone/stage4/unit7/conv1/activ/Clip_output_0">
					<dim>1</dim>
					<dim>576</dim>
					<dim>54</dim>
					<dim>54</dim>
				</port>
			</output>
		</layer>
		<layer id="188" name="Reshape_1413" type="Const" version="opset1">
			<data element_type="f32" shape="576, 1, 1, 3, 3" offset="1897544" size="20736" />
			<output>
				<port id="0" precision="FP32">
					<dim>576</dim>
					<dim>1</dim>
					<dim>1</dim>
					<dim>3</dim>
					<dim>3</dim>
				</port>
			</output>
		</layer>
		<layer id="189" name="/backbone/stage4/unit7/conv2/conv/Conv/WithoutBiases" type="GroupConvolution" version="opset1">
			<data strides="1, 1" pads_begin="1, 1" pads_end="1, 1" dilations="1, 1" auto_pad="explicit" />
			<input>
				<port id="0" precision="FP32">
					<dim>1</dim>
					<dim>576</dim>
					<dim>54</dim>
					<dim>54</dim>
				</port>
				<port id="1" precision="FP32">
					<dim>576</dim>
					<dim>1</dim>
					<dim>1</dim>
					<dim>3</dim>
					<dim>3</dim>
				</port>
			</input>
			<output>
				<port id="2" precision="FP32">
					<dim>1</dim>
					<dim>576</dim>
					<dim>54</dim>
					<dim>54</dim>
				</port>
			</output>
		</layer>
		<layer id="190" name="Reshape_1465" type="Const" version="opset1">
			<data element_type="f32" shape="1, 576, 1, 1" offset="1918280" size="2304" />
			<output>
				<port id="0" precision="FP32">
					<dim>1</dim>
					<dim>576</dim>
					<dim>1</dim>
					<dim>1</dim>
				</port>
			</output>
		</layer>
		<layer id="191" name="/backbone/stage4/unit7/conv2/conv/Conv" type="Add" version="opset1">
			<data auto_broadcast="numpy" />
			<input>
				<port id="0" precision="FP32">
					<dim>1</dim>
					<dim>576</dim>
					<dim>54</dim>
					<dim>54</dim>
				</port>
				<port id="1" precision="FP32">
					<dim>1</dim>
					<dim>576</dim>
					<dim>1</dim>
					<dim>1</dim>
				</port>
			</input>
			<output>
				<port id="2" precision="FP32" names="/backbone/stage4/unit7/conv2/conv/Conv_output_0">
					<dim>1</dim>
					<dim>576</dim>
					<dim>54</dim>
					<dim>54</dim>
				</port>
			</output>
		</layer>
		<layer id="192" name="/backbone/stage4/unit7/conv2/activ/Clip" type="Clamp" version="opset1">
			<data min="0" max="6" />
			<input>
				<port id="0" precision="FP32">
					<dim>1</dim>
					<dim>576</dim>
					<dim>54</dim>
					<dim>54</dim>
				</port>
			</input>
			<output>
				<port id="1" precision="FP32" names="/backbone/stage4/unit7/conv2/activ/Clip_output_0">
					<dim>1</dim>
					<dim>576</dim>
					<dim>54</dim>
					<dim>54</dim>
				</port>
			</output>
		</layer>
		<layer id="193" name="onnx::Conv_1244" type="Const" version="opset1">
			<data element_type="f32" shape="96, 576, 1, 1" offset="1920584" size="221184" />
			<output>
				<port id="0" precision="FP32" names="onnx::Conv_1244">
					<dim>96</dim>
					<dim>576</dim>
					<dim>1</dim>
					<dim>1</dim>
				</port>
			</output>
		</layer>
		<layer id="194" name="/backbone/stage4/unit7/conv3/conv/Conv/WithoutBiases" type="Convolution" version="opset1">
			<data strides="1, 1" dilations="1, 1" pads_begin="0, 0" pads_end="0, 0" auto_pad="explicit" />
			<input>
				<port id="0" precision="FP32">
					<dim>1</dim>
					<dim>576</dim>
					<dim>54</dim>
					<dim>54</dim>
				</port>
				<port id="1" precision="FP32">
					<dim>96</dim>
					<dim>576</dim>
					<dim>1</dim>
					<dim>1</dim>
				</port>
			</input>
			<output>
				<port id="2" precision="FP32">
					<dim>1</dim>
					<dim>96</dim>
					<dim>54</dim>
					<dim>54</dim>
				</port>
			</output>
		</layer>
		<layer id="195" name="Reshape_1485" type="Const" version="opset1">
			<data element_type="f32" shape="1, 96, 1, 1" offset="2141768" size="384" />
			<output>
				<port id="0" precision="FP32">
					<dim>1</dim>
					<dim>96</dim>
					<dim>1</dim>
					<dim>1</dim>
				</port>
			</output>
		</layer>
		<layer id="196" name="/backbone/stage4/unit7/conv3/conv/Conv" type="Add" version="opset1">
			<data auto_broadcast="numpy" />
			<input>
				<port id="0" precision="FP32">
					<dim>1</dim>
					<dim>96</dim>
					<dim>54</dim>
					<dim>54</dim>
				</port>
				<port id="1" precision="FP32">
					<dim>1</dim>
					<dim>96</dim>
					<dim>1</dim>
					<dim>1</dim>
				</port>
			</input>
			<output>
				<port id="2" precision="FP32" names="/backbone/stage4/unit7/conv3/conv/Conv_output_0">
					<dim>1</dim>
					<dim>96</dim>
					<dim>54</dim>
					<dim>54</dim>
				</port>
			</output>
		</layer>
		<layer id="197" name="/backbone/stage4/unit7/Add" type="Add" version="opset1">
			<data auto_broadcast="numpy" />
			<input>
				<port id="0" precision="FP32">
					<dim>1</dim>
					<dim>96</dim>
					<dim>54</dim>
					<dim>54</dim>
				</port>
				<port id="1" precision="FP32">
					<dim>1</dim>
					<dim>96</dim>
					<dim>54</dim>
					<dim>54</dim>
				</port>
			</input>
			<output>
				<port id="2" precision="FP32" names="/backbone/stage4/unit7/Add_output_0">
					<dim>1</dim>
					<dim>96</dim>
					<dim>54</dim>
					<dim>54</dim>
				</port>
			</output>
		</layer>
		<layer id="198" name="Reshape_1911" type="Const" version="opset1">
			<data element_type="f32" shape="96, 1, 1, 3, 3" offset="2142152" size="3456" />
			<output>
				<port id="0" precision="FP32">
					<dim>96</dim>
					<dim>1</dim>
					<dim>1</dim>
					<dim>3</dim>
					<dim>3</dim>
				</port>
			</output>
		</layer>
		<layer id="199" name="/bbox_head/cls_convs.0/cls_convs.0.0/Conv/WithoutBiases" type="GroupConvolution" version="opset1">
			<data strides="1, 1" pads_begin="1, 1" pads_end="1, 1" dilations="1, 1" auto_pad="explicit" />
			<input>
				<port id="0" precision="FP32">
					<dim>1</dim>
					<dim>96</dim>
					<dim>54</dim>
					<dim>54</dim>
				</port>
				<port id="1" precision="FP32">
					<dim>96</dim>
					<dim>1</dim>
					<dim>1</dim>
					<dim>3</dim>
					<dim>3</dim>
				</port>
			</input>
			<output>
				<port id="2" precision="FP32">
					<dim>1</dim>
					<dim>96</dim>
					<dim>54</dim>
					<dim>54</dim>
				</port>
			</output>
		</layer>
		<layer id="200" name="Reshape_1963" type="Const" version="opset1">
			<data element_type="f32" shape="1, 96, 1, 1" offset="2145608" size="384" />
			<output>
				<port id="0" precision="FP32">
					<dim>1</dim>
					<dim>96</dim>
					<dim>1</dim>
					<dim>1</dim>
				</port>
			</output>
		</layer>
		<layer id="201" name="/bbox_head/cls_convs.0/cls_convs.0.0/Conv" type="Add" version="opset1">
			<data auto_broadcast="numpy" />
			<input>
				<port id="0" precision="FP32">
					<dim>1</dim>
					<dim>96</dim>
					<dim>54</dim>
					<dim>54</dim>
				</port>
				<port id="1" precision="FP32">
					<dim>1</dim>
					<dim>96</dim>
					<dim>1</dim>
					<dim>1</dim>
				</port>
			</input>
			<output>
				<port id="2" precision="FP32" names="/bbox_head/cls_convs.0/cls_convs.0.0/Conv_output_0">
					<dim>1</dim>
					<dim>96</dim>
					<dim>54</dim>
					<dim>54</dim>
				</port>
			</output>
		</layer>
		<layer id="202" name="/bbox_head/cls_convs.0/cls_convs.0.2/Relu" type="ReLU" version="opset1">
			<input>
				<port id="0" precision="FP32">
					<dim>1</dim>
					<dim>96</dim>
					<dim>54</dim>
					<dim>54</dim>
				</port>
			</input>
			<output>
				<port id="1" precision="FP32" names="/bbox_head/cls_convs.0/cls_convs.0.2/Relu_output_0">
					<dim>1</dim>
					<dim>96</dim>
					<dim>54</dim>
					<dim>54</dim>
				</port>
			</output>
		</layer>
		<layer id="203" name="model.bbox_head.cls_convs.0.3.weight" type="Const" version="opset1">
			<data element_type="f32" shape="92, 96, 1, 1" offset="2145992" size="35328" />
			<output>
				<port id="0" precision="FP32" names="model.bbox_head.cls_convs.0.3.weight">
					<dim>92</dim>
					<dim>96</dim>
					<dim>1</dim>
					<dim>1</dim>
				</port>
			</output>
		</layer>
		<layer id="204" name="/bbox_head/cls_convs.0/cls_convs.0.3/Conv/WithoutBiases" type="Convolution" version="opset1">
			<data strides="1, 1" dilations="1, 1" pads_begin="0, 0" pads_end="0, 0" auto_pad="explicit" />
			<input>
				<port id="0" precision="FP32">
					<dim>1</dim>
					<dim>96</dim>
					<dim>54</dim>
					<dim>54</dim>
				</port>
				<port id="1" precision="FP32">
					<dim>92</dim>
					<dim>96</dim>
					<dim>1</dim>
					<dim>1</dim>
				</port>
			</input>
			<output>
				<port id="2" precision="FP32">
					<dim>1</dim>
					<dim>92</dim>
					<dim>54</dim>
					<dim>54</dim>
				</port>
			</output>
		</layer>
		<layer id="205" name="Reshape_1980" type="Const" version="opset1">
			<data element_type="f32" shape="1, 92, 1, 1" offset="2181320" size="368" />
			<output>
				<port id="0" precision="FP32">
					<dim>1</dim>
					<dim>92</dim>
					<dim>1</dim>
					<dim>1</dim>
				</port>
			</output>
		</layer>
		<layer id="206" name="/bbox_head/cls_convs.0/cls_convs.0.3/Conv" type="Add" version="opset1">
			<data auto_broadcast="numpy" />
			<input>
				<port id="0" precision="FP32">
					<dim>1</dim>
					<dim>92</dim>
					<dim>54</dim>
					<dim>54</dim>
				</port>
				<port id="1" precision="FP32">
					<dim>1</dim>
					<dim>92</dim>
					<dim>1</dim>
					<dim>1</dim>
				</port>
			</input>
			<output>
				<port id="2" precision="FP32" names="/bbox_head/cls_convs.0/cls_convs.0.3/Conv_output_0">
					<dim>1</dim>
					<dim>92</dim>
					<dim>54</dim>
					<dim>54</dim>
				</port>
			</output>
		</layer>
		<layer id="207" name="/Shape" type="ShapeOf" version="opset3">
			<data output_type="i64" />
			<input>
				<port id="0" precision="FP32">
					<dim>1</dim>
					<dim>92</dim>
					<dim>54</dim>
					<dim>54</dim>
				</port>
			</input>
			<output>
				<port id="1" precision="I64" names="/Shape_12_output_0,/Shape_1_output_0,/Shape_output_0">
					<dim>4</dim>
				</port>
			</output>
		</layer>
		<layer id="208" name="/Constant_2" type="Const" version="opset1">
			<data element_type="i64" shape="" offset="2181688" size="8" />
			<output>
				<port id="0" precision="I64" names="/Constant_2_output_0" />
			</output>
		</layer>
		<layer id="209" name="Constant_2231" type="Const" version="opset1">
			<data element_type="i64" shape="" offset="64" size="8" />
			<output>
				<port id="0" precision="I64" />
			</output>
		</layer>
		<layer id="210" name="/Gather_1" type="Gather" version="opset8">
			<data batch_dims="0" />
			<input>
				<port id="0" precision="I64">
					<dim>4</dim>
				</port>
				<port id="1" precision="I64" />
				<port id="2" precision="I64" />
			</input>
			<output>
				<port id="3" precision="I64" names="/Cast_output_0,/Gather_1_output_0" />
			</output>
		</layer>
		<layer id="211" name="/Constant_7" type="Const" version="opset1">
			<data element_type="i64" shape="" offset="2181696" size="8" />
			<output>
				<port id="0" precision="I64" names="/Constant_7_output_0" />
			</output>
		</layer>
		<layer id="212" name="/Range" type="Range" version="opset4">
			<data output_type="i64" />
			<input>
				<port id="0" precision="I64" />
				<port id="1" precision="I64" />
				<port id="2" precision="I64" />
			</input>
			<output>
				<port id="3" precision="I64" names="/Range_output_0">
					<dim>54</dim>
				</port>
			</output>
		</layer>
		<layer id="213" name="/Cast_1" type="Convert" version="opset1">
			<data destination_type="f32" />
			<input>
				<port id="0" precision="I64">
					<dim>54</dim>
				</port>
			</input>
			<output>
				<port id="1" precision="FP32" names="/Cast_1_output_0">
					<dim>54</dim>
				</port>
			</output>
		</layer>
		<layer id="214" name="Constant_14786" type="Const" version="opset1">
			<data element_type="f32" shape="1" offset="2181704" size="4" />
			<output>
				<port id="0" precision="FP32">
					<dim>1</dim>
				</port>
			</output>
		</layer>
		<layer id="215" name="/Mul" type="Multiply" version="opset1">
			<data auto_broadcast="numpy" />
			<input>
				<port id="0" precision="FP32">
					<dim>54</dim>
				</port>
				<port id="1" precision="FP32">
					<dim>1</dim>
				</port>
			</input>
			<output>
				<port id="2" precision="FP32" names="/Mul_output_0">
					<dim>54</dim>
				</port>
			</output>
		</layer>
		<layer id="216" name="/ConstantOfShape" type="Const" version="opset1">
			<data element_type="i64" shape="1" offset="2181696" size="8" />
			<output>
				<port id="0" precision="I64" names="/ConstantOfShape_output_0">
					<dim>1</dim>
				</port>
			</output>
		</layer>
		<layer id="217" name="/Expand" type="Broadcast" version="opset3">
			<data mode="bidirectional" />
			<input>
				<port id="0" precision="FP32">
					<dim>54</dim>
				</port>
				<port id="1" precision="I64">
					<dim>1</dim>
				</port>
			</input>
			<output>
				<port id="2" precision="FP32" names="/Expand_output_0">
					<dim>54</dim>
				</port>
			</output>
		</layer>
		<layer id="218" name="/Constant_9" type="Const" version="opset1">
			<data element_type="i64" shape="" offset="64" size="8" />
			<output>
				<port id="0" precision="I64" names="/Constant_9_output_0" />
			</output>
		</layer>
		<layer id="219" name="/Constant_1" type="Const" version="opset1">
			<data element_type="i64" shape="" offset="2181708" size="8" />
			<output>
				<port id="0" precision="I64" names="/Constant_1_output_0" />
			</output>
		</layer>
		<layer id="220" name="Constant_2227" type="Const" version="opset1">
			<data element_type="i64" shape="" offset="64" size="8" />
			<output>
				<port id="0" precision="I64" />
			</output>
		</layer>
		<layer id="221" name="/Gather" type="Gather" version="opset8">
			<data batch_dims="0" />
			<input>
				<port id="0" precision="I64">
					<dim>4</dim>
				</port>
				<port id="1" precision="I64" />
				<port id="2" precision="I64" />
			</input>
			<output>
				<port id="3" precision="I64" names="/Cast_2_output_0,/Gather_output_0" />
			</output>
		</layer>
		<layer id="222" name="/Constant_10" type="Const" version="opset1">
			<data element_type="i64" shape="" offset="2181696" size="8" />
			<output>
				<port id="0" precision="I64" names="/Constant_10_output_0" />
			</output>
		</layer>
		<layer id="223" name="/Range_1" type="Range" version="opset4">
			<data output_type="i64" />
			<input>
				<port id="0" precision="I64" />
				<port id="1" precision="I64" />
				<port id="2" precision="I64" />
			</input>
			<output>
				<port id="3" precision="I64" names="/Range_1_output_0">
					<dim>54</dim>
				</port>
			</output>
		</layer>
		<layer id="224" name="/Cast_3" type="Convert" version="opset1">
			<data destination_type="f32" />
			<input>
				<port id="0" precision="I64">
					<dim>54</dim>
				</port>
			</input>
			<output>
				<port id="1" precision="FP32" names="/Cast_3_output_0">
					<dim>54</dim>
				</port>
			</output>
		</layer>
		<layer id="225" name="Constant_14787" type="Const" version="opset1">
			<data element_type="f32" shape="1" offset="2181704" size="4" />
			<output>
				<port id="0" precision="FP32">
					<dim>1</dim>
				</port>
			</output>
		</layer>
		<layer id="226" name="/Mul_1" type="Multiply" version="opset1">
			<data auto_broadcast="numpy" />
			<input>
				<port id="0" precision="FP32">
					<dim>54</dim>
				</port>
				<port id="1" precision="FP32">
					<dim>1</dim>
				</port>
			</input>
			<output>
				<port id="2" precision="FP32" names="/Mul_1_output_0">
					<dim>54</dim>
				</port>
			</output>
		</layer>
		<layer id="227" name="/Shape_4" type="ShapeOf" version="opset3">
			<data output_type="i64" />
			<input>
				<port id="0" precision="FP32">
					<dim>54</dim>
				</port>
			</input>
			<output>
				<port id="1" precision="I64" names="/Concat_1_output_0,/Concat_output_0,/Gather_4_output_0,/Shape_4_output_0,/Unsqueeze_1_output_0,/Unsqueeze_output_0">
					<dim>1</dim>
				</port>
			</output>
		</layer>
		<layer id="228" name="/Tile" type="Tile" version="opset1">
			<input>
				<port id="0" precision="FP32">
					<dim>54</dim>
				</port>
				<port id="1" precision="I64">
					<dim>1</dim>
				</port>
			</input>
			<output>
				<port id="2" precision="FP32" names="/Tile_output_0">
					<dim>2916</dim>
				</port>
			</output>
		</layer>
		<layer id="229" name="/Constant_19" type="Const" version="opset1">
			<data element_type="i64" shape="1" offset="2181716" size="8" />
			<output>
				<port id="0" precision="I64" names="/Constant_19_output_0">
					<dim>1</dim>
				</port>
			</output>
		</layer>
		<layer id="230" name="/Unsqueeze_4" type="Unsqueeze" version="opset1">
			<input>
				<port id="0" precision="FP32">
					<dim>2916</dim>
				</port>
				<port id="1" precision="I64">
					<dim>1</dim>
				</port>
			</input>
			<output>
				<port id="2" precision="FP32" names="/Unsqueeze_4_output_0,/Unsqueeze_6_output_0">
					<dim>2916</dim>
					<dim>1</dim>
				</port>
			</output>
		</layer>
		<layer id="231" name="/Constant_13" type="Const" version="opset1">
			<data element_type="i64" shape="2" offset="2181724" size="16" />
			<output>
				<port id="0" precision="I64" names="/Constant_13_output_0">
					<dim>2</dim>
				</port>
			</output>
		</layer>
		<layer id="232" name="/Reshape" type="Reshape" version="opset1">
			<data special_zero="true" />
			<input>
				<port id="0" precision="FP32">
					<dim>54</dim>
				</port>
				<port id="1" precision="I64">
					<dim>2</dim>
				</port>
			</input>
			<output>
				<port id="2" precision="FP32" names="/Reshape_output_0">
					<dim>54</dim>
					<dim>1</dim>
				</port>
			</output>
		</layer>
		<layer id="233" name="/ConstantOfShape_1" type="Const" version="opset1">
			<data element_type="i64" shape="2" offset="2181740" size="16" />
			<output>
				<port id="0" precision="I64" names="/ConstantOfShape_1_output_0">
					<dim>2</dim>
				</port>
			</output>
		</layer>
		<layer id="234" name="/Expand_1" type="Broadcast" version="opset3">
			<data mode="bidirectional" />
			<input>
				<port id="0" precision="FP32">
					<dim>54</dim>
					<dim>1</dim>
				</port>
				<port id="1" precision="I64">
					<dim>2</dim>
				</port>
			</input>
			<output>
				<port id="2" precision="FP32" names="/Expand_1_output_0">
					<dim>54</dim>
					<dim>1</dim>
				</port>
			</output>
		</layer>
		<layer id="235" name="/Constant_15" type="Const" version="opset1">
			<data element_type="i64" shape="1" offset="2181696" size="8" />
			<output>
				<port id="0" precision="I64" names="/Constant_15_output_0">
					<dim>1</dim>
				</port>
			</output>
		</layer>
		<layer id="236" name="/Shape_6" type="ShapeOf" version="opset3">
			<data output_type="i64" />
			<input>
				<port id="0" precision="FP32">
					<dim>54</dim>
				</port>
			</input>
			<output>
				<port id="1" precision="I64" names="/Gather_5_output_0,/Shape_6_output_0,/Unsqueeze_2_output_0,/Unsqueeze_3_output_0">
					<dim>1</dim>
				</port>
			</output>
		</layer>
		<layer id="237" name="/Concat_2" type="Concat" version="opset1">
			<data axis="0" />
			<input>
				<port id="0" precision="I64">
					<dim>1</dim>
				</port>
				<port id="1" precision="I64">
					<dim>1</dim>
				</port>
			</input>
			<output>
				<port id="2" precision="I64" names="/Concat_2_output_0,/Concat_3_output_0">
					<dim>2</dim>
				</port>
			</output>
		</layer>
		<layer id="238" name="/Tile_1" type="Tile" version="opset1">
			<input>
				<port id="0" precision="FP32">
					<dim>54</dim>
					<dim>1</dim>
				</port>
				<port id="1" precision="I64">
					<dim>2</dim>
				</port>
			</input>
			<output>
				<port id="2" precision="FP32" names="/Tile_1_output_0">
					<dim>54</dim>
					<dim>54</dim>
				</port>
			</output>
		</layer>
		<layer id="239" name="Constant_6442" type="Const" version="opset1">
			<data element_type="i64" shape="1" offset="2181716" size="8" />
			<output>
				<port id="0" precision="I64">
					<dim>1</dim>
				</port>
			</output>
		</layer>
		<layer id="240" name="/Reshape_1" type="Reshape" version="opset1">
			<data special_zero="true" />
			<input>
				<port id="0" precision="FP32">
					<dim>54</dim>
					<dim>54</dim>
				</port>
				<port id="1" precision="I64">
					<dim>1</dim>
				</port>
			</input>
			<output>
				<port id="2" precision="FP32" names="/Reshape_1_output_0">
					<dim>2916</dim>
				</port>
			</output>
		</layer>
		<layer id="241" name="/Constant_20" type="Const" version="opset1">
			<data element_type="i64" shape="1" offset="2181716" size="8" />
			<output>
				<port id="0" precision="I64" names="/Constant_20_output_0">
					<dim>1</dim>
				</port>
			</output>
		</layer>
		<layer id="242" name="/Unsqueeze_5" type="Unsqueeze" version="opset1">
			<input>
				<port id="0" precision="FP32">
					<dim>2916</dim>
				</port>
				<port id="1" precision="I64">
					<dim>1</dim>
				</port>
			</input>
			<output>
				<port id="2" precision="FP32" names="/Unsqueeze_5_output_0,/Unsqueeze_7_output_0">
					<dim>2916</dim>
					<dim>1</dim>
				</port>
			</output>
		</layer>
		<layer id="243" name="/Concat_4" type="Concat" version="opset1">
			<data axis="-1" />
			<input>
				<port id="0" precision="FP32">
					<dim>2916</dim>
					<dim>1</dim>
				</port>
				<port id="1" precision="FP32">
					<dim>2916</dim>
					<dim>1</dim>
				</port>
				<port id="2" precision="FP32">
					<dim>2916</dim>
					<dim>1</dim>
				</port>
				<port id="3" precision="FP32">
					<dim>2916</dim>
					<dim>1</dim>
				</port>
			</input>
			<output>
				<port id="4" precision="FP32" names="/Concat_4_output_0">
					<dim>2916</dim>
					<dim>4</dim>
				</port>
			</output>
		</layer>
		<layer id="244" name="/Constant_23" type="Const" version="opset1">
			<data element_type="i64" shape="1" offset="2181696" size="8" />
			<output>
				<port id="0" precision="I64" names="/Constant_23_output_0">
					<dim>1</dim>
				</port>
			</output>
		</layer>
		<layer id="245" name="/Unsqueeze_8" type="Unsqueeze" version="opset1">
			<input>
				<port id="0" precision="FP32">
					<dim>2916</dim>
					<dim>4</dim>
				</port>
				<port id="1" precision="I64">
					<dim>1</dim>
				</port>
			</input>
			<output>
				<port id="2" precision="FP32" names="/Unsqueeze_8_output_0">
					<dim>2916</dim>
					<dim>1</dim>
					<dim>4</dim>
				</port>
			</output>
		</layer>
		<layer id="246" name="/Add" type="Add" version="opset1">
			<data auto_broadcast="numpy" />
			<input>
				<port id="0" precision="FP32">
					<dim>1</dim>
					<dim>4</dim>
					<dim>4</dim>
				</port>
				<port id="1" precision="FP32">
					<dim>2916</dim>
					<dim>1</dim>
					<dim>4</dim>
				</port>
			</input>
			<output>
				<port id="2" precision="FP32" names="/Add_output_0">
					<dim>2916</dim>
					<dim>4</dim>
					<dim>4</dim>
				</port>
			</output>
		</layer>
		<layer id="247" name="/Constant_25" type="Const" version="opset1">
			<data element_type="i64" shape="2" offset="2181756" size="16" />
			<output>
				<port id="0" precision="I64" names="/Constant_25_output_0">
					<dim>2</dim>
				</port>
			</output>
		</layer>
		<layer id="248" name="/Reshape_2" type="Reshape" version="opset1">
			<data special_zero="true" />
			<input>
				<port id="0" precision="FP32">
					<dim>2916</dim>
					<dim>4</dim>
					<dim>4</dim>
				</port>
				<port id="1" precision="I64">
					<dim>2</dim>
				</port>
			</input>
			<output>
				<port id="2" precision="FP32" names="/Reshape_2_output_0">
					<dim>11664</dim>
					<dim>4</dim>
				</port>
			</output>
		</layer>
		<layer id="249" name="/Constant_46" type="Const" version="opset1">
			<data element_type="i64" shape="1" offset="64" size="8" />
			<output>
				<port id="0" precision="I64" names="/Constant_46_output_0">
					<dim>1</dim>
				</port>
			</output>
		</layer>
		<layer id="250" name="/Unsqueeze_18" type="Unsqueeze" version="opset1">
			<input>
				<port id="0" precision="FP32">
					<dim>11664</dim>
					<dim>4</dim>
				</port>
				<port id="1" precision="I64">
					<dim>1</dim>
				</port>
			</input>
			<output>
				<port id="2" precision="FP32" names="/Unsqueeze_18_output_0">
					<dim>1</dim>
					<dim>11664</dim>
					<dim>4</dim>
				</port>
			</output>
		</layer>
		<layer id="251" name="/Constant_43" type="Const" version="opset1">
			<data element_type="f32" shape="1, 5, 4" offset="2181772" size="80" />
			<output>
				<port id="0" precision="FP32" names="/Constant_43_output_0">
					<dim>1</dim>
					<dim>5</dim>
					<dim>4</dim>
				</port>
			</output>
		</layer>
		<layer id="252" name="/Constant_26" type="Const" version="opset1">
			<data element_type="i64" shape="" offset="64" size="8" />
			<output>
				<port id="0" precision="I64" names="/Constant_26_output_0" />
			</output>
		</layer>
		<layer id="253" name="onnx::Conv_1247" type="Const" version="opset1">
			<data element_type="f32" shape="576, 96, 1, 1" offset="2181852" size="221184" />
			<output>
				<port id="0" precision="FP32" names="onnx::Conv_1247">
					<dim>576</dim>
					<dim>96</dim>
					<dim>1</dim>
					<dim>1</dim>
				</port>
			</output>
		</layer>
		<layer id="254" name="/backbone/stage5/unit1/conv1/conv/Conv/WithoutBiases" type="Convolution" version="opset1">
			<data strides="1, 1" dilations="1, 1" pads_begin="0, 0" pads_end="0, 0" auto_pad="explicit" />
			<input>
				<port id="0" precision="FP32">
					<dim>1</dim>
					<dim>96</dim>
					<dim>54</dim>
					<dim>54</dim>
				</port>
				<port id="1" precision="FP32">
					<dim>576</dim>
					<dim>96</dim>
					<dim>1</dim>
					<dim>1</dim>
				</port>
			</input>
			<output>
				<port id="2" precision="FP32">
					<dim>1</dim>
					<dim>576</dim>
					<dim>54</dim>
					<dim>54</dim>
				</port>
			</output>
		</layer>
		<layer id="255" name="Reshape_1502" type="Const" version="opset1">
			<data element_type="f32" shape="1, 576, 1, 1" offset="2403036" size="2304" />
			<output>
				<port id="0" precision="FP32">
					<dim>1</dim>
					<dim>576</dim>
					<dim>1</dim>
					<dim>1</dim>
				</port>
			</output>
		</layer>
		<layer id="256" name="/backbone/stage5/unit1/conv1/conv/Conv" type="Add" version="opset1">
			<data auto_broadcast="numpy" />
			<input>
				<port id="0" precision="FP32">
					<dim>1</dim>
					<dim>576</dim>
					<dim>54</dim>
					<dim>54</dim>
				</port>
				<port id="1" precision="FP32">
					<dim>1</dim>
					<dim>576</dim>
					<dim>1</dim>
					<dim>1</dim>
				</port>
			</input>
			<output>
				<port id="2" precision="FP32" names="/backbone/stage5/unit1/conv1/conv/Conv_output_0">
					<dim>1</dim>
					<dim>576</dim>
					<dim>54</dim>
					<dim>54</dim>
				</port>
			</output>
		</layer>
		<layer id="257" name="/backbone/stage5/unit1/conv1/activ/Clip" type="Clamp" version="opset1">
			<data min="0" max="6" />
			<input>
				<port id="0" precision="FP32">
					<dim>1</dim>
					<dim>576</dim>
					<dim>54</dim>
					<dim>54</dim>
				</port>
			</input>
			<output>
				<port id="1" precision="FP32" names="/backbone/stage5/unit1/conv1/activ/Clip_output_0">
					<dim>1</dim>
					<dim>576</dim>
					<dim>54</dim>
					<dim>54</dim>
				</port>
			</output>
		</layer>
		<layer id="258" name="Reshape_1517" type="Const" version="opset1">
			<data element_type="f32" shape="576, 1, 1, 3, 3" offset="2405340" size="20736" />
			<output>
				<port id="0" precision="FP32">
					<dim>576</dim>
					<dim>1</dim>
					<dim>1</dim>
					<dim>3</dim>
					<dim>3</dim>
				</port>
			</output>
		</layer>
		<layer id="259" name="/backbone/stage5/unit1/conv2/conv/Conv/WithoutBiases" type="GroupConvolution" version="opset1">
			<data strides="2, 2" pads_begin="1, 1" pads_end="1, 1" dilations="1, 1" auto_pad="explicit" />
			<input>
				<port id="0" precision="FP32">
					<dim>1</dim>
					<dim>576</dim>
					<dim>54</dim>
					<dim>54</dim>
				</port>
				<port id="1" precision="FP32">
					<dim>576</dim>
					<dim>1</dim>
					<dim>1</dim>
					<dim>3</dim>
					<dim>3</dim>
				</port>
			</input>
			<output>
				<port id="2" precision="FP32">
					<dim>1</dim>
					<dim>576</dim>
					<dim>27</dim>
					<dim>27</dim>
				</port>
			</output>
		</layer>
		<layer id="260" name="Reshape_1569" type="Const" version="opset1">
			<data element_type="f32" shape="1, 576, 1, 1" offset="2426076" size="2304" />
			<output>
				<port id="0" precision="FP32">
					<dim>1</dim>
					<dim>576</dim>
					<dim>1</dim>
					<dim>1</dim>
				</port>
			</output>
		</layer>
		<layer id="261" name="/backbone/stage5/unit1/conv2/conv/Conv" type="Add" version="opset1">
			<data auto_broadcast="numpy" />
			<input>
				<port id="0" precision="FP32">
					<dim>1</dim>
					<dim>576</dim>
					<dim>27</dim>
					<dim>27</dim>
				</port>
				<port id="1" precision="FP32">
					<dim>1</dim>
					<dim>576</dim>
					<dim>1</dim>
					<dim>1</dim>
				</port>
			</input>
			<output>
				<port id="2" precision="FP32" names="/backbone/stage5/unit1/conv2/conv/Conv_output_0">
					<dim>1</dim>
					<dim>576</dim>
					<dim>27</dim>
					<dim>27</dim>
				</port>
			</output>
		</layer>
		<layer id="262" name="/backbone/stage5/unit1/conv2/activ/Clip" type="Clamp" version="opset1">
			<data min="0" max="6" />
			<input>
				<port id="0" precision="FP32">
					<dim>1</dim>
					<dim>576</dim>
					<dim>27</dim>
					<dim>27</dim>
				</port>
			</input>
			<output>
				<port id="1" precision="FP32" names="/backbone/stage5/unit1/conv2/activ/Clip_output_0">
					<dim>1</dim>
					<dim>576</dim>
					<dim>27</dim>
					<dim>27</dim>
				</port>
			</output>
		</layer>
		<layer id="263" name="onnx::Conv_1253" type="Const" version="opset1">
			<data element_type="f32" shape="160, 576, 1, 1" offset="2428380" size="368640" />
			<output>
				<port id="0" precision="FP32" names="onnx::Conv_1253">
					<dim>160</dim>
					<dim>576</dim>
					<dim>1</dim>
					<dim>1</dim>
				</port>
			</output>
		</layer>
		<layer id="264" name="/backbone/stage5/unit1/conv3/conv/Conv/WithoutBiases" type="Convolution" version="opset1">
			<data strides="1, 1" dilations="1, 1" pads_begin="0, 0" pads_end="0, 0" auto_pad="explicit" />
			<input>
				<port id="0" precision="FP32">
					<dim>1</dim>
					<dim>576</dim>
					<dim>27</dim>
					<dim>27</dim>
				</port>
				<port id="1" precision="FP32">
					<dim>160</dim>
					<dim>576</dim>
					<dim>1</dim>
					<dim>1</dim>
				</port>
			</input>
			<output>
				<port id="2" precision="FP32">
					<dim>1</dim>
					<dim>160</dim>
					<dim>27</dim>
					<dim>27</dim>
				</port>
			</output>
		</layer>
		<layer id="265" name="Reshape_1589" type="Const" version="opset1">
			<data element_type="f32" shape="1, 160, 1, 1" offset="2797020" size="640" />
			<output>
				<port id="0" precision="FP32">
					<dim>1</dim>
					<dim>160</dim>
					<dim>1</dim>
					<dim>1</dim>
				</port>
			</output>
		</layer>
		<layer id="266" name="/backbone/stage5/unit1/conv3/conv/Conv" type="Add" version="opset1">
			<data auto_broadcast="numpy" />
			<input>
				<port id="0" precision="FP32">
					<dim>1</dim>
					<dim>160</dim>
					<dim>27</dim>
					<dim>27</dim>
				</port>
				<port id="1" precision="FP32">
					<dim>1</dim>
					<dim>160</dim>
					<dim>1</dim>
					<dim>1</dim>
				</port>
			</input>
			<output>
				<port id="2" precision="FP32" names="/backbone/stage5/unit1/conv3/conv/Conv_output_0">
					<dim>1</dim>
					<dim>160</dim>
					<dim>27</dim>
					<dim>27</dim>
				</port>
			</output>
		</layer>
		<layer id="267" name="onnx::Conv_1256" type="Const" version="opset1">
			<data element_type="f32" shape="960, 160, 1, 1" offset="2797660" size="614400" />
			<output>
				<port id="0" precision="FP32" names="onnx::Conv_1256">
					<dim>960</dim>
					<dim>160</dim>
					<dim>1</dim>
					<dim>1</dim>
				</port>
			</output>
		</layer>
		<layer id="268" name="/backbone/stage5/unit2/conv1/conv/Conv/WithoutBiases" type="Convolution" version="opset1">
			<data strides="1, 1" dilations="1, 1" pads_begin="0, 0" pads_end="0, 0" auto_pad="explicit" />
			<input>
				<port id="0" precision="FP32">
					<dim>1</dim>
					<dim>160</dim>
					<dim>27</dim>
					<dim>27</dim>
				</port>
				<port id="1" precision="FP32">
					<dim>960</dim>
					<dim>160</dim>
					<dim>1</dim>
					<dim>1</dim>
				</port>
			</input>
			<output>
				<port id="2" precision="FP32">
					<dim>1</dim>
					<dim>960</dim>
					<dim>27</dim>
					<dim>27</dim>
				</port>
			</output>
		</layer>
		<layer id="269" name="Reshape_1605" type="Const" version="opset1">
			<data element_type="f32" shape="1, 960, 1, 1" offset="3412060" size="3840" />
			<output>
				<port id="0" precision="FP32">
					<dim>1</dim>
					<dim>960</dim>
					<dim>1</dim>
					<dim>1</dim>
				</port>
			</output>
		</layer>
		<layer id="270" name="/backbone/stage5/unit2/conv1/conv/Conv" type="Add" version="opset1">
			<data auto_broadcast="numpy" />
			<input>
				<port id="0" precision="FP32">
					<dim>1</dim>
					<dim>960</dim>
					<dim>27</dim>
					<dim>27</dim>
				</port>
				<port id="1" precision="FP32">
					<dim>1</dim>
					<dim>960</dim>
					<dim>1</dim>
					<dim>1</dim>
				</port>
			</input>
			<output>
				<port id="2" precision="FP32" names="/backbone/stage5/unit2/conv1/conv/Conv_output_0">
					<dim>1</dim>
					<dim>960</dim>
					<dim>27</dim>
					<dim>27</dim>
				</port>
			</output>
		</layer>
		<layer id="271" name="/backbone/stage5/unit2/conv1/activ/Clip" type="Clamp" version="opset1">
			<data min="0" max="6" />
			<input>
				<port id="0" precision="FP32">
					<dim>1</dim>
					<dim>960</dim>
					<dim>27</dim>
					<dim>27</dim>
				</port>
			</input>
			<output>
				<port id="1" precision="FP32" names="/backbone/stage5/unit2/conv1/activ/Clip_output_0">
					<dim>1</dim>
					<dim>960</dim>
					<dim>27</dim>
					<dim>27</dim>
				</port>
			</output>
		</layer>
		<layer id="272" name="Reshape_1620" type="Const" version="opset1">
			<data element_type="f32" shape="960, 1, 1, 3, 3" offset="3415900" size="34560" />
			<output>
				<port id="0" precision="FP32">
					<dim>960</dim>
					<dim>1</dim>
					<dim>1</dim>
					<dim>3</dim>
					<dim>3</dim>
				</port>
			</output>
		</layer>
		<layer id="273" name="/backbone/stage5/unit2/conv2/conv/Conv/WithoutBiases" type="GroupConvolution" version="opset1">
			<data strides="1, 1" pads_begin="1, 1" pads_end="1, 1" dilations="1, 1" auto_pad="explicit" />
			<input>
				<port id="0" precision="FP32">
					<dim>1</dim>
					<dim>960</dim>
					<dim>27</dim>
					<dim>27</dim>
				</port>
				<port id="1" precision="FP32">
					<dim>960</dim>
					<dim>1</dim>
					<dim>1</dim>
					<dim>3</dim>
					<dim>3</dim>
				</port>
			</input>
			<output>
				<port id="2" precision="FP32">
					<dim>1</dim>
					<dim>960</dim>
					<dim>27</dim>
					<dim>27</dim>
				</port>
			</output>
		</layer>
		<layer id="274" name="Reshape_1672" type="Const" version="opset1">
			<data element_type="f32" shape="1, 960, 1, 1" offset="3450460" size="3840" />
			<output>
				<port id="0" precision="FP32">
					<dim>1</dim>
					<dim>960</dim>
					<dim>1</dim>
					<dim>1</dim>
				</port>
			</output>
		</layer>
		<layer id="275" name="/backbone/stage5/unit2/conv2/conv/Conv" type="Add" version="opset1">
			<data auto_broadcast="numpy" />
			<input>
				<port id="0" precision="FP32">
					<dim>1</dim>
					<dim>960</dim>
					<dim>27</dim>
					<dim>27</dim>
				</port>
				<port id="1" precision="FP32">
					<dim>1</dim>
					<dim>960</dim>
					<dim>1</dim>
					<dim>1</dim>
				</port>
			</input>
			<output>
				<port id="2" precision="FP32" names="/backbone/stage5/unit2/conv2/conv/Conv_output_0">
					<dim>1</dim>
					<dim>960</dim>
					<dim>27</dim>
					<dim>27</dim>
				</port>
			</output>
		</layer>
		<layer id="276" name="/backbone/stage5/unit2/conv2/activ/Clip" type="Clamp" version="opset1">
			<data min="0" max="6" />
			<input>
				<port id="0" precision="FP32">
					<dim>1</dim>
					<dim>960</dim>
					<dim>27</dim>
					<dim>27</dim>
				</port>
			</input>
			<output>
				<port id="1" precision="FP32" names="/backbone/stage5/unit2/conv2/activ/Clip_output_0">
					<dim>1</dim>
					<dim>960</dim>
					<dim>27</dim>
					<dim>27</dim>
				</port>
			</output>
		</layer>
		<layer id="277" name="onnx::Conv_1262" type="Const" version="opset1">
			<data element_type="f32" shape="160, 960, 1, 1" offset="3454300" size="614400" />
			<output>
				<port id="0" precision="FP32" names="onnx::Conv_1262">
					<dim>160</dim>
					<dim>960</dim>
					<dim>1</dim>
					<dim>1</dim>
				</port>
			</output>
		</layer>
		<layer id="278" name="/backbone/stage5/unit2/conv3/conv/Conv/WithoutBiases" type="Convolution" version="opset1">
			<data strides="1, 1" dilations="1, 1" pads_begin="0, 0" pads_end="0, 0" auto_pad="explicit" />
			<input>
				<port id="0" precision="FP32">
					<dim>1</dim>
					<dim>960</dim>
					<dim>27</dim>
					<dim>27</dim>
				</port>
				<port id="1" precision="FP32">
					<dim>160</dim>
					<dim>960</dim>
					<dim>1</dim>
					<dim>1</dim>
				</port>
			</input>
			<output>
				<port id="2" precision="FP32">
					<dim>1</dim>
					<dim>160</dim>
					<dim>27</dim>
					<dim>27</dim>
				</port>
			</output>
		</layer>
		<layer id="279" name="Reshape_1692" type="Const" version="opset1">
			<data element_type="f32" shape="1, 160, 1, 1" offset="4068700" size="640" />
			<output>
				<port id="0" precision="FP32">
					<dim>1</dim>
					<dim>160</dim>
					<dim>1</dim>
					<dim>1</dim>
				</port>
			</output>
		</layer>
		<layer id="280" name="/backbone/stage5/unit2/conv3/conv/Conv" type="Add" version="opset1">
			<data auto_broadcast="numpy" />
			<input>
				<port id="0" precision="FP32">
					<dim>1</dim>
					<dim>160</dim>
					<dim>27</dim>
					<dim>27</dim>
				</port>
				<port id="1" precision="FP32">
					<dim>1</dim>
					<dim>160</dim>
					<dim>1</dim>
					<dim>1</dim>
				</port>
			</input>
			<output>
				<port id="2" precision="FP32" names="/backbone/stage5/unit2/conv3/conv/Conv_output_0">
					<dim>1</dim>
					<dim>160</dim>
					<dim>27</dim>
					<dim>27</dim>
				</port>
			</output>
		</layer>
		<layer id="281" name="/backbone/stage5/unit2/Add" type="Add" version="opset1">
			<data auto_broadcast="numpy" />
			<input>
				<port id="0" precision="FP32">
					<dim>1</dim>
					<dim>160</dim>
					<dim>27</dim>
					<dim>27</dim>
				</port>
				<port id="1" precision="FP32">
					<dim>1</dim>
					<dim>160</dim>
					<dim>27</dim>
					<dim>27</dim>
				</port>
			</input>
			<output>
				<port id="2" precision="FP32" names="/backbone/stage5/unit2/Add_output_0">
					<dim>1</dim>
					<dim>160</dim>
					<dim>27</dim>
					<dim>27</dim>
				</port>
			</output>
		</layer>
		<layer id="282" name="onnx::Conv_1265" type="Const" version="opset1">
			<data element_type="f32" shape="960, 160, 1, 1" offset="4069340" size="614400" />
			<output>
				<port id="0" precision="FP32" names="onnx::Conv_1265">
					<dim>960</dim>
					<dim>160</dim>
					<dim>1</dim>
					<dim>1</dim>
				</port>
			</output>
		</layer>
		<layer id="283" name="/backbone/stage5/unit3/conv1/conv/Conv/WithoutBiases" type="Convolution" version="opset1">
			<data strides="1, 1" dilations="1, 1" pads_begin="0, 0" pads_end="0, 0" auto_pad="explicit" />
			<input>
				<port id="0" precision="FP32">
					<dim>1</dim>
					<dim>160</dim>
					<dim>27</dim>
					<dim>27</dim>
				</port>
				<port id="1" precision="FP32">
					<dim>960</dim>
					<dim>160</dim>
					<dim>1</dim>
					<dim>1</dim>
				</port>
			</input>
			<output>
				<port id="2" precision="FP32">
					<dim>1</dim>
					<dim>960</dim>
					<dim>27</dim>
					<dim>27</dim>
				</port>
			</output>
		</layer>
		<layer id="284" name="Reshape_1709" type="Const" version="opset1">
			<data element_type="f32" shape="1, 960, 1, 1" offset="4683740" size="3840" />
			<output>
				<port id="0" precision="FP32">
					<dim>1</dim>
					<dim>960</dim>
					<dim>1</dim>
					<dim>1</dim>
				</port>
			</output>
		</layer>
		<layer id="285" name="/backbone/stage5/unit3/conv1/conv/Conv" type="Add" version="opset1">
			<data auto_broadcast="numpy" />
			<input>
				<port id="0" precision="FP32">
					<dim>1</dim>
					<dim>960</dim>
					<dim>27</dim>
					<dim>27</dim>
				</port>
				<port id="1" precision="FP32">
					<dim>1</dim>
					<dim>960</dim>
					<dim>1</dim>
					<dim>1</dim>
				</port>
			</input>
			<output>
				<port id="2" precision="FP32" names="/backbone/stage5/unit3/conv1/conv/Conv_output_0">
					<dim>1</dim>
					<dim>960</dim>
					<dim>27</dim>
					<dim>27</dim>
				</port>
			</output>
		</layer>
		<layer id="286" name="/backbone/stage5/unit3/conv1/activ/Clip" type="Clamp" version="opset1">
			<data min="0" max="6" />
			<input>
				<port id="0" precision="FP32">
					<dim>1</dim>
					<dim>960</dim>
					<dim>27</dim>
					<dim>27</dim>
				</port>
			</input>
			<output>
				<port id="1" precision="FP32" names="/backbone/stage5/unit3/conv1/activ/Clip_output_0">
					<dim>1</dim>
					<dim>960</dim>
					<dim>27</dim>
					<dim>27</dim>
				</port>
			</output>
		</layer>
		<layer id="287" name="Reshape_1724" type="Const" version="opset1">
			<data element_type="f32" shape="960, 1, 1, 3, 3" offset="4687580" size="34560" />
			<output>
				<port id="0" precision="FP32">
					<dim>960</dim>
					<dim>1</dim>
					<dim>1</dim>
					<dim>3</dim>
					<dim>3</dim>
				</port>
			</output>
		</layer>
		<layer id="288" name="/backbone/stage5/unit3/conv2/conv/Conv/WithoutBiases" type="GroupConvolution" version="opset1">
			<data strides="1, 1" pads_begin="1, 1" pads_end="1, 1" dilations="1, 1" auto_pad="explicit" />
			<input>
				<port id="0" precision="FP32">
					<dim>1</dim>
					<dim>960</dim>
					<dim>27</dim>
					<dim>27</dim>
				</port>
				<port id="1" precision="FP32">
					<dim>960</dim>
					<dim>1</dim>
					<dim>1</dim>
					<dim>3</dim>
					<dim>3</dim>
				</port>
			</input>
			<output>
				<port id="2" precision="FP32">
					<dim>1</dim>
					<dim>960</dim>
					<dim>27</dim>
					<dim>27</dim>
				</port>
			</output>
		</layer>
		<layer id="289" name="Reshape_1776" type="Const" version="opset1">
			<data element_type="f32" shape="1, 960, 1, 1" offset="4722140" size="3840" />
			<output>
				<port id="0" precision="FP32">
					<dim>1</dim>
					<dim>960</dim>
					<dim>1</dim>
					<dim>1</dim>
				</port>
			</output>
		</layer>
		<layer id="290" name="/backbone/stage5/unit3/conv2/conv/Conv" type="Add" version="opset1">
			<data auto_broadcast="numpy" />
			<input>
				<port id="0" precision="FP32">
					<dim>1</dim>
					<dim>960</dim>
					<dim>27</dim>
					<dim>27</dim>
				</port>
				<port id="1" precision="FP32">
					<dim>1</dim>
					<dim>960</dim>
					<dim>1</dim>
					<dim>1</dim>
				</port>
			</input>
			<output>
				<port id="2" precision="FP32" names="/backbone/stage5/unit3/conv2/conv/Conv_output_0">
					<dim>1</dim>
					<dim>960</dim>
					<dim>27</dim>
					<dim>27</dim>
				</port>
			</output>
		</layer>
		<layer id="291" name="/backbone/stage5/unit3/conv2/activ/Clip" type="Clamp" version="opset1">
			<data min="0" max="6" />
			<input>
				<port id="0" precision="FP32">
					<dim>1</dim>
					<dim>960</dim>
					<dim>27</dim>
					<dim>27</dim>
				</port>
			</input>
			<output>
				<port id="1" precision="FP32" names="/backbone/stage5/unit3/conv2/activ/Clip_output_0">
					<dim>1</dim>
					<dim>960</dim>
					<dim>27</dim>
					<dim>27</dim>
				</port>
			</output>
		</layer>
		<layer id="292" name="onnx::Conv_1271" type="Const" version="opset1">
			<data element_type="f32" shape="160, 960, 1, 1" offset="4725980" size="614400" />
			<output>
				<port id="0" precision="FP32" names="onnx::Conv_1271">
					<dim>160</dim>
					<dim>960</dim>
					<dim>1</dim>
					<dim>1</dim>
				</port>
			</output>
		</layer>
		<layer id="293" name="/backbone/stage5/unit3/conv3/conv/Conv/WithoutBiases" type="Convolution" version="opset1">
			<data strides="1, 1" dilations="1, 1" pads_begin="0, 0" pads_end="0, 0" auto_pad="explicit" />
			<input>
				<port id="0" precision="FP32">
					<dim>1</dim>
					<dim>960</dim>
					<dim>27</dim>
					<dim>27</dim>
				</port>
				<port id="1" precision="FP32">
					<dim>160</dim>
					<dim>960</dim>
					<dim>1</dim>
					<dim>1</dim>
				</port>
			</input>
			<output>
				<port id="2" precision="FP32">
					<dim>1</dim>
					<dim>160</dim>
					<dim>27</dim>
					<dim>27</dim>
				</port>
			</output>
		</layer>
		<layer id="294" name="Reshape_1796" type="Const" version="opset1">
			<data element_type="f32" shape="1, 160, 1, 1" offset="5340380" size="640" />
			<output>
				<port id="0" precision="FP32">
					<dim>1</dim>
					<dim>160</dim>
					<dim>1</dim>
					<dim>1</dim>
				</port>
			</output>
		</layer>
		<layer id="295" name="/backbone/stage5/unit3/conv3/conv/Conv" type="Add" version="opset1">
			<data auto_broadcast="numpy" />
			<input>
				<port id="0" precision="FP32">
					<dim>1</dim>
					<dim>160</dim>
					<dim>27</dim>
					<dim>27</dim>
				</port>
				<port id="1" precision="FP32">
					<dim>1</dim>
					<dim>160</dim>
					<dim>1</dim>
					<dim>1</dim>
				</port>
			</input>
			<output>
				<port id="2" precision="FP32" names="/backbone/stage5/unit3/conv3/conv/Conv_output_0">
					<dim>1</dim>
					<dim>160</dim>
					<dim>27</dim>
					<dim>27</dim>
				</port>
			</output>
		</layer>
		<layer id="296" name="/backbone/stage5/unit3/Add" type="Add" version="opset1">
			<data auto_broadcast="numpy" />
			<input>
				<port id="0" precision="FP32">
					<dim>1</dim>
					<dim>160</dim>
					<dim>27</dim>
					<dim>27</dim>
				</port>
				<port id="1" precision="FP32">
					<dim>1</dim>
					<dim>160</dim>
					<dim>27</dim>
					<dim>27</dim>
				</port>
			</input>
			<output>
				<port id="2" precision="FP32" names="/backbone/stage5/unit3/Add_output_0">
					<dim>1</dim>
					<dim>160</dim>
					<dim>27</dim>
					<dim>27</dim>
				</port>
			</output>
		</layer>
		<layer id="297" name="onnx::Conv_1274" type="Const" version="opset1">
			<data element_type="f32" shape="960, 160, 1, 1" offset="5341020" size="614400" />
			<output>
				<port id="0" precision="FP32" names="onnx::Conv_1274">
					<dim>960</dim>
					<dim>160</dim>
					<dim>1</dim>
					<dim>1</dim>
				</port>
			</output>
		</layer>
		<layer id="298" name="/backbone/stage5/unit4/conv1/conv/Conv/WithoutBiases" type="Convolution" version="opset1">
			<data strides="1, 1" dilations="1, 1" pads_begin="0, 0" pads_end="0, 0" auto_pad="explicit" />
			<input>
				<port id="0" precision="FP32">
					<dim>1</dim>
					<dim>160</dim>
					<dim>27</dim>
					<dim>27</dim>
				</port>
				<port id="1" precision="FP32">
					<dim>960</dim>
					<dim>160</dim>
					<dim>1</dim>
					<dim>1</dim>
				</port>
			</input>
			<output>
				<port id="2" precision="FP32">
					<dim>1</dim>
					<dim>960</dim>
					<dim>27</dim>
					<dim>27</dim>
				</port>
			</output>
		</layer>
		<layer id="299" name="Reshape_1813" type="Const" version="opset1">
			<data element_type="f32" shape="1, 960, 1, 1" offset="5955420" size="3840" />
			<output>
				<port id="0" precision="FP32">
					<dim>1</dim>
					<dim>960</dim>
					<dim>1</dim>
					<dim>1</dim>
				</port>
			</output>
		</layer>
		<layer id="300" name="/backbone/stage5/unit4/conv1/conv/Conv" type="Add" version="opset1">
			<data auto_broadcast="numpy" />
			<input>
				<port id="0" precision="FP32">
					<dim>1</dim>
					<dim>960</dim>
					<dim>27</dim>
					<dim>27</dim>
				</port>
				<port id="1" precision="FP32">
					<dim>1</dim>
					<dim>960</dim>
					<dim>1</dim>
					<dim>1</dim>
				</port>
			</input>
			<output>
				<port id="2" precision="FP32" names="/backbone/stage5/unit4/conv1/conv/Conv_output_0">
					<dim>1</dim>
					<dim>960</dim>
					<dim>27</dim>
					<dim>27</dim>
				</port>
			</output>
		</layer>
		<layer id="301" name="/backbone/stage5/unit4/conv1/activ/Clip" type="Clamp" version="opset1">
			<data min="0" max="6" />
			<input>
				<port id="0" precision="FP32">
					<dim>1</dim>
					<dim>960</dim>
					<dim>27</dim>
					<dim>27</dim>
				</port>
			</input>
			<output>
				<port id="1" precision="FP32" names="/backbone/stage5/unit4/conv1/activ/Clip_output_0">
					<dim>1</dim>
					<dim>960</dim>
					<dim>27</dim>
					<dim>27</dim>
				</port>
			</output>
		</layer>
		<layer id="302" name="Reshape_1828" type="Const" version="opset1">
			<data element_type="f32" shape="960, 1, 1, 3, 3" offset="5959260" size="34560" />
			<output>
				<port id="0" precision="FP32">
					<dim>960</dim>
					<dim>1</dim>
					<dim>1</dim>
					<dim>3</dim>
					<dim>3</dim>
				</port>
			</output>
		</layer>
		<layer id="303" name="/backbone/stage5/unit4/conv2/conv/Conv/WithoutBiases" type="GroupConvolution" version="opset1">
			<data strides="1, 1" pads_begin="1, 1" pads_end="1, 1" dilations="1, 1" auto_pad="explicit" />
			<input>
				<port id="0" precision="FP32">
					<dim>1</dim>
					<dim>960</dim>
					<dim>27</dim>
					<dim>27</dim>
				</port>
				<port id="1" precision="FP32">
					<dim>960</dim>
					<dim>1</dim>
					<dim>1</dim>
					<dim>3</dim>
					<dim>3</dim>
				</port>
			</input>
			<output>
				<port id="2" precision="FP32">
					<dim>1</dim>
					<dim>960</dim>
					<dim>27</dim>
					<dim>27</dim>
				</port>
			</output>
		</layer>
		<layer id="304" name="Reshape_1880" type="Const" version="opset1">
			<data element_type="f32" shape="1, 960, 1, 1" offset="5993820" size="3840" />
			<output>
				<port id="0" precision="FP32">
					<dim>1</dim>
					<dim>960</dim>
					<dim>1</dim>
					<dim>1</dim>
				</port>
			</output>
		</layer>
		<layer id="305" name="/backbone/stage5/unit4/conv2/conv/Conv" type="Add" version="opset1">
			<data auto_broadcast="numpy" />
			<input>
				<port id="0" precision="FP32">
					<dim>1</dim>
					<dim>960</dim>
					<dim>27</dim>
					<dim>27</dim>
				</port>
				<port id="1" precision="FP32">
					<dim>1</dim>
					<dim>960</dim>
					<dim>1</dim>
					<dim>1</dim>
				</port>
			</input>
			<output>
				<port id="2" precision="FP32" names="/backbone/stage5/unit4/conv2/conv/Conv_output_0">
					<dim>1</dim>
					<dim>960</dim>
					<dim>27</dim>
					<dim>27</dim>
				</port>
			</output>
		</layer>
		<layer id="306" name="/backbone/stage5/unit4/conv2/activ/Clip" type="Clamp" version="opset1">
			<data min="0" max="6" />
			<input>
				<port id="0" precision="FP32">
					<dim>1</dim>
					<dim>960</dim>
					<dim>27</dim>
					<dim>27</dim>
				</port>
			</input>
			<output>
				<port id="1" precision="FP32" names="/backbone/stage5/unit4/conv2/activ/Clip_output_0">
					<dim>1</dim>
					<dim>960</dim>
					<dim>27</dim>
					<dim>27</dim>
				</port>
			</output>
		</layer>
		<layer id="307" name="onnx::Conv_1280" type="Const" version="opset1">
			<data element_type="f32" shape="320, 960, 1, 1" offset="5997660" size="1228800" />
			<output>
				<port id="0" precision="FP32" names="onnx::Conv_1280">
					<dim>320</dim>
					<dim>960</dim>
					<dim>1</dim>
					<dim>1</dim>
				</port>
			</output>
		</layer>
		<layer id="308" name="/backbone/stage5/unit4/conv3/conv/Conv/WithoutBiases" type="Convolution" version="opset1">
			<data strides="1, 1" dilations="1, 1" pads_begin="0, 0" pads_end="0, 0" auto_pad="explicit" />
			<input>
				<port id="0" precision="FP32">
					<dim>1</dim>
					<dim>960</dim>
					<dim>27</dim>
					<dim>27</dim>
				</port>
				<port id="1" precision="FP32">
					<dim>320</dim>
					<dim>960</dim>
					<dim>1</dim>
					<dim>1</dim>
				</port>
			</input>
			<output>
				<port id="2" precision="FP32">
					<dim>1</dim>
					<dim>320</dim>
					<dim>27</dim>
					<dim>27</dim>
				</port>
			</output>
		</layer>
		<layer id="309" name="Reshape_1900" type="Const" version="opset1">
			<data element_type="f32" shape="1, 320, 1, 1" offset="7226460" size="1280" />
			<output>
				<port id="0" precision="FP32">
					<dim>1</dim>
					<dim>320</dim>
					<dim>1</dim>
					<dim>1</dim>
				</port>
			</output>
		</layer>
		<layer id="310" name="/backbone/stage5/unit4/conv3/conv/Conv" type="Add" version="opset1">
			<data auto_broadcast="numpy" />
			<input>
				<port id="0" precision="FP32">
					<dim>1</dim>
					<dim>320</dim>
					<dim>27</dim>
					<dim>27</dim>
				</port>
				<port id="1" precision="FP32">
					<dim>1</dim>
					<dim>320</dim>
					<dim>1</dim>
					<dim>1</dim>
				</port>
			</input>
			<output>
				<port id="2" precision="FP32" names="/backbone/stage5/unit4/conv3/conv/Conv_output_0">
					<dim>1</dim>
					<dim>320</dim>
					<dim>27</dim>
					<dim>27</dim>
				</port>
			</output>
		</layer>
		<layer id="311" name="Reshape_2071" type="Const" version="opset1">
			<data element_type="f32" shape="320, 1, 1, 3, 3" offset="7227740" size="11520" />
			<output>
				<port id="0" precision="FP32">
					<dim>320</dim>
					<dim>1</dim>
					<dim>1</dim>
					<dim>3</dim>
					<dim>3</dim>
				</port>
			</output>
		</layer>
		<layer id="312" name="/bbox_head/cls_convs.1/cls_convs.1.0/Conv/WithoutBiases" type="GroupConvolution" version="opset1">
			<data strides="1, 1" pads_begin="1, 1" pads_end="1, 1" dilations="1, 1" auto_pad="explicit" />
			<input>
				<port id="0" precision="FP32">
					<dim>1</dim>
					<dim>320</dim>
					<dim>27</dim>
					<dim>27</dim>
				</port>
				<port id="1" precision="FP32">
					<dim>320</dim>
					<dim>1</dim>
					<dim>1</dim>
					<dim>3</dim>
					<dim>3</dim>
				</port>
			</input>
			<output>
				<port id="2" precision="FP32">
					<dim>1</dim>
					<dim>320</dim>
					<dim>27</dim>
					<dim>27</dim>
				</port>
			</output>
		</layer>
		<layer id="313" name="Reshape_2123" type="Const" version="opset1">
			<data element_type="f32" shape="1, 320, 1, 1" offset="7239260" size="1280" />
			<output>
				<port id="0" precision="FP32">
					<dim>1</dim>
					<dim>320</dim>
					<dim>1</dim>
					<dim>1</dim>
				</port>
			</output>
		</layer>
		<layer id="314" name="/bbox_head/cls_convs.1/cls_convs.1.0/Conv" type="Add" version="opset1">
			<data auto_broadcast="numpy" />
			<input>
				<port id="0" precision="FP32">
					<dim>1</dim>
					<dim>320</dim>
					<dim>27</dim>
					<dim>27</dim>
				</port>
				<port id="1" precision="FP32">
					<dim>1</dim>
					<dim>320</dim>
					<dim>1</dim>
					<dim>1</dim>
				</port>
			</input>
			<output>
				<port id="2" precision="FP32" names="/bbox_head/cls_convs.1/cls_convs.1.0/Conv_output_0">
					<dim>1</dim>
					<dim>320</dim>
					<dim>27</dim>
					<dim>27</dim>
				</port>
			</output>
		</layer>
		<layer id="315" name="/bbox_head/cls_convs.1/cls_convs.1.2/Relu" type="ReLU" version="opset1">
			<input>
				<port id="0" precision="FP32">
					<dim>1</dim>
					<dim>320</dim>
					<dim>27</dim>
					<dim>27</dim>
				</port>
			</input>
			<output>
				<port id="1" precision="FP32" names="/bbox_head/cls_convs.1/cls_convs.1.2/Relu_output_0">
					<dim>1</dim>
					<dim>320</dim>
					<dim>27</dim>
					<dim>27</dim>
				</port>
			</output>
		</layer>
		<layer id="316" name="model.bbox_head.cls_convs.1.3.weight" type="Const" version="opset1">
			<data element_type="f32" shape="115, 320, 1, 1" offset="7240540" size="147200" />
			<output>
				<port id="0" precision="FP32" names="model.bbox_head.cls_convs.1.3.weight">
					<dim>115</dim>
					<dim>320</dim>
					<dim>1</dim>
					<dim>1</dim>
				</port>
			</output>
		</layer>
		<layer id="317" name="/bbox_head/cls_convs.1/cls_convs.1.3/Conv/WithoutBiases" type="Convolution" version="opset1">
			<data strides="1, 1" dilations="1, 1" pads_begin="0, 0" pads_end="0, 0" auto_pad="explicit" />
			<input>
				<port id="0" precision="FP32">
					<dim>1</dim>
					<dim>320</dim>
					<dim>27</dim>
					<dim>27</dim>
				</port>
				<port id="1" precision="FP32">
					<dim>115</dim>
					<dim>320</dim>
					<dim>1</dim>
					<dim>1</dim>
				</port>
			</input>
			<output>
				<port id="2" precision="FP32">
					<dim>1</dim>
					<dim>115</dim>
					<dim>27</dim>
					<dim>27</dim>
				</port>
			</output>
		</layer>
		<layer id="318" name="Reshape_2140" type="Const" version="opset1">
			<data element_type="f32" shape="1, 115, 1, 1" offset="7387740" size="460" />
			<output>
				<port id="0" precision="FP32">
					<dim>1</dim>
					<dim>115</dim>
					<dim>1</dim>
					<dim>1</dim>
				</port>
			</output>
		</layer>
		<layer id="319" name="/bbox_head/cls_convs.1/cls_convs.1.3/Conv" type="Add" version="opset1">
			<data auto_broadcast="numpy" />
			<input>
				<port id="0" precision="FP32">
					<dim>1</dim>
					<dim>115</dim>
					<dim>27</dim>
					<dim>27</dim>
				</port>
				<port id="1" precision="FP32">
					<dim>1</dim>
					<dim>115</dim>
					<dim>1</dim>
					<dim>1</dim>
				</port>
			</input>
			<output>
				<port id="2" precision="FP32" names="/bbox_head/cls_convs.1/cls_convs.1.3/Conv_output_0">
					<dim>1</dim>
					<dim>115</dim>
					<dim>27</dim>
					<dim>27</dim>
				</port>
			</output>
		</layer>
		<layer id="320" name="/Shape_2" type="ShapeOf" version="opset3">
			<data output_type="i64" />
			<input>
				<port id="0" precision="FP32">
					<dim>1</dim>
					<dim>115</dim>
					<dim>27</dim>
					<dim>27</dim>
				</port>
			</input>
			<output>
				<port id="1" precision="I64" names="/Shape_2_output_0,/Shape_3_output_0">
					<dim>4</dim>
				</port>
			</output>
		</layer>
		<layer id="321" name="/Constant_4" type="Const" version="opset1">
			<data element_type="i64" shape="" offset="2181688" size="8" />
			<output>
				<port id="0" precision="I64" names="/Constant_4_output_0" />
			</output>
		</layer>
		<layer id="322" name="Constant_2239" type="Const" version="opset1">
			<data element_type="i64" shape="" offset="64" size="8" />
			<output>
				<port id="0" precision="I64" />
			</output>
		</layer>
		<layer id="323" name="/Gather_3" type="Gather" version="opset8">
			<data batch_dims="0" />
			<input>
				<port id="0" precision="I64">
					<dim>4</dim>
				</port>
				<port id="1" precision="I64" />
				<port id="2" precision="I64" />
			</input>
			<output>
				<port id="3" precision="I64" names="/Cast_4_output_0,/Gather_3_output_0" />
			</output>
		</layer>
		<layer id="324" name="/Constant_27" type="Const" version="opset1">
			<data element_type="i64" shape="" offset="2181696" size="8" />
			<output>
				<port id="0" precision="I64" names="/Constant_27_output_0" />
			</output>
		</layer>
		<layer id="325" name="/Range_2" type="Range" version="opset4">
			<data output_type="i64" />
			<input>
				<port id="0" precision="I64" />
				<port id="1" precision="I64" />
				<port id="2" precision="I64" />
			</input>
			<output>
				<port id="3" precision="I64" names="/Range_2_output_0">
					<dim>27</dim>
				</port>
			</output>
		</layer>
		<layer id="326" name="/Cast_5" type="Convert" version="opset1">
			<data destination_type="f32" />
			<input>
				<port id="0" precision="I64">
					<dim>27</dim>
				</port>
			</input>
			<output>
				<port id="1" precision="FP32" names="/Cast_5_output_0">
					<dim>27</dim>
				</port>
			</output>
		</layer>
		<layer id="327" name="Constant_14788" type="Const" version="opset1">
			<data element_type="f32" shape="1" offset="7388200" size="4" />
			<output>
				<port id="0" precision="FP32">
					<dim>1</dim>
				</port>
			</output>
		</layer>
		<layer id="328" name="/Mul_2" type="Multiply" version="opset1">
			<data auto_broadcast="numpy" />
			<input>
				<port id="0" precision="FP32">
					<dim>27</dim>
				</port>
				<port id="1" precision="FP32">
					<dim>1</dim>
				</port>
			</input>
			<output>
				<port id="2" precision="FP32" names="/Mul_2_output_0">
					<dim>27</dim>
				</port>
			</output>
		</layer>
		<layer id="329" name="/ConstantOfShape_2" type="Const" version="opset1">
			<data element_type="i64" shape="1" offset="2181696" size="8" />
			<output>
				<port id="0" precision="I64" names="/ConstantOfShape_2_output_0">
					<dim>1</dim>
				</port>
			</output>
		</layer>
		<layer id="330" name="/Expand_2" type="Broadcast" version="opset3">
			<data mode="bidirectional" />
			<input>
				<port id="0" precision="FP32">
					<dim>27</dim>
				</port>
				<port id="1" precision="I64">
					<dim>1</dim>
				</port>
			</input>
			<output>
				<port id="2" precision="FP32" names="/Expand_2_output_0">
					<dim>27</dim>
				</port>
			</output>
		</layer>
		<layer id="331" name="/Constant_29" type="Const" version="opset1">
			<data element_type="i64" shape="" offset="64" size="8" />
			<output>
				<port id="0" precision="I64" names="/Constant_29_output_0" />
			</output>
		</layer>
		<layer id="332" name="/Constant_3" type="Const" version="opset1">
			<data element_type="i64" shape="" offset="2181708" size="8" />
			<output>
				<port id="0" precision="I64" names="/Constant_3_output_0" />
			</output>
		</layer>
		<layer id="333" name="Constant_2235" type="Const" version="opset1">
…
		<edge from-layer="135" from-port="2" to-layer="137" to-port="0" />
		<edge from-layer="136" from-port="0" to-layer="137" to-port="1" />
		<edge from-layer="137" from-port="2" to-layer="138" to-port="0" />
		<edge from-layer="138" from-port="2" to-layer="140" to-port="0" />
		<edge from-layer="138" from-port="2" to-layer="153" to-port="1" />
		<edge from-layer="139" from-port="0" to-layer="140" to-port="1" />
		<edge from-layer="140" from-port="2" to-layer="142" to-port="0" />
		<edge from-layer="141" from-port="0" to-layer="142" to-port="1" />
		<edge from-layer="142" from-port="2" to-layer="143" to-port="0" />
		<edge from-layer="143" from-port="1" to-layer="145" to-port="0" />
		<edge from-layer="144" from-port="0" to-layer="145" to-port="1" />
		<edge from-layer="145" from-port="2" to-layer="147" to-port="0" />
		<edge from-layer="146" from-port="0" to-layer="147" to-port="1" />
		<edge from-layer="147" from-port="2" to-layer="148" to-port="0" />
		<edge from-layer="148" from-port="1" to-layer="150" to-port="0" />
		<edge from-layer="149" from-port="0" to-layer="150" to-port="1" />
		<edge from-layer="150" from-port="2" to-layer="152" to-port="0" />
		<edge from-layer="151" from-port="0" to-layer="152" to-port="1" />
		<edge from-layer="152" from-port="2" to-layer="153" to-port="0" />
		<edge from-layer="153" from-port="2" to-layer="155" to-port="0" />
		<edge from-layer="154" from-port="0" to-layer="155" to-port="1" />
		<edge from-layer="155" from-port="2" to-layer="157" to-port="0" />
		<edge from-layer="156" from-port="0" to-layer="157" to-port="1" />
		<edge from-layer="157" from-port="2" to-layer="158" to-port="0" />
		<edge from-layer="158" from-port="1" to-layer="160" to-port="0" />
		<edge from-layer="159" from-port="0" to-layer="160" to-port="1" />
		<edge from-layer="160" from-port="2" to-layer="162" to-port="0" />
		<edge from-layer="161" from-port="0" to-layer="162" to-port="1" />
		<edge from-layer="162" from-port="2" to-layer="163" to-port="0" />
		<edge from-layer="163" from-port="1" to-layer="165" to-port="0" />
		<edge from-layer="164" from-port="0" to-layer="165" to-port="1" />
		<edge from-layer="165" from-port="2" to-layer="167" to-port="0" />
		<edge from-layer="166" from-port="0" to-layer="167" to-port="1" />
		<edge from-layer="167" from-port="2" to-layer="182" to-port="1" />
		<edge from-layer="167" from-port="2" to-layer="169" to-port="0" />
		<edge from-layer="168" from-port="0" to-layer="169" to-port="1" />
		<edge from-layer="169" from-port="2" to-layer="171" to-port="0" />
		<edge from-layer="170" from-port="0" to-layer="171" to-port="1" />
		<edge from-layer="171" from-port="2" to-layer="172" to-port="0" />
		<edge from-layer="172" from-port="1" to-layer="174" to-port="0" />
		<edge from-layer="173" from-port="0" to-layer="174" to-port="1" />
		<edge from-layer="174" from-port="2" to-layer="176" to-port="0" />
		<edge from-layer="175" from-port="0" to-layer="176" to-port="1" />
		<edge from-layer="176" from-port="2" to-layer="177" to-port="0" />
		<edge from-layer="177" from-port="1" to-layer="179" to-port="0" />
		<edge from-layer="178" from-port="0" to-layer="179" to-port="1" />
		<edge from-layer="179" from-port="2" to-layer="181" to-port="0" />
		<edge from-layer="180" from-port="0" to-layer="181" to-port="1" />
		<edge from-layer="181" from-port="2" to-layer="182" to-port="0" />
		<edge from-layer="182" from-port="2" to-layer="184" to-port="0" />
		<edge from-layer="182" from-port="2" to-layer="197" to-port="1" />
		<edge from-layer="183" from-port="0" to-layer="184" to-port="1" />
		<edge from-layer="184" from-port="2" to-layer="186" to-port="0" />
		<edge from-layer="185" from-port="0" to-layer="186" to-port="1" />
		<edge from-layer="186" from-port="2" to-layer="187" to-port="0" />
		<edge from-layer="187" from-port="1" to-layer="189" to-port="0" />
		<edge from-layer="188" from-port="0" to-layer="189" to-port="1" />
		<edge from-layer="189" from-port="2" to-layer="191" to-port="0" />
		<edge from-layer="190" from-port="0" to-layer="191" to-port="1" />
		<edge from-layer="191" from-port="2" to-layer="192" to-port="0" />
		<edge from-layer="192" from-port="1" to-layer="194" to-port="0" />
		<edge from-layer="193" from-port="0" to-layer="194" to-port="1" />
		<edge from-layer="194" from-port="2" to-layer="196" to-port="0" />
		<edge from-layer="195" from-port="0" to-layer="196" to-port="1" />
		<edge from-layer="196" from-port="2" to-layer="197" to-port="0" />
		<edge from-layer="197" from-port="2" to-layer="199" to-port="0" />
		<edge from-layer="197" from-port="2" to-layer="254" to-port="0" />
		<edge from-layer="197" from-port="2" to-layer="382" to-port="0" />
		<edge from-layer="198" from-port="0" to-layer="199" to-port="1" />
		<edge from-layer="199" from-port="2" to-layer="201" to-port="0" />
		<edge from-layer="200" from-port="0" to-layer="201" to-port="1" />
		<edge from-layer="201" from-port="2" to-layer="202" to-port="0" />
		<edge from-layer="202" from-port="1" to-layer="204" to-port="0" />
		<edge from-layer="203" from-port="0" to-layer="204" to-port="1" />
		<edge from-layer="204" from-port="2" to-layer="206" to-port="0" />
		<edge from-layer="205" from-port="0" to-layer="206" to-port="1" />
		<edge from-layer="206" from-port="2" to-layer="469" to-port="0" />
		<edge from-layer="206" from-port="2" to-layer="207" to-port="0" />
		<edge from-layer="207" from-port="1" to-layer="394" to-port="0" />
		<edge from-layer="207" from-port="1" to-layer="210" to-port="0" />
		<edge from-layer="207" from-port="1" to-layer="221" to-port="0" />
		<edge from-layer="208" from-port="0" to-layer="210" to-port="1" />
		<edge from-layer="209" from-port="0" to-layer="210" to-port="2" />
		<edge from-layer="210" from-port="3" to-layer="212" to-port="1" />
		<edge from-layer="211" from-port="0" to-layer="212" to-port="2" />
		<edge from-layer="212" from-port="3" to-layer="213" to-port="0" />
		<edge from-layer="213" from-port="1" to-layer="215" to-port="0" />
		<edge from-layer="214" from-port="0" to-layer="215" to-port="1" />
		<edge from-layer="215" from-port="2" to-layer="217" to-port="0" />
		<edge from-layer="215" from-port="2" to-layer="236" to-port="0" />
		<edge from-layer="216" from-port="0" to-layer="217" to-port="1" />
		<edge from-layer="217" from-port="2" to-layer="228" to-port="0" />
		<edge from-layer="218" from-port="0" to-layer="223" to-port="0" />
		<edge from-layer="219" from-port="0" to-layer="221" to-port="1" />
		<edge from-layer="220" from-port="0" to-layer="221" to-port="2" />
		<edge from-layer="221" from-port="3" to-layer="223" to-port="1" />
		<edge from-layer="222" from-port="0" to-layer="223" to-port="2" />
		<edge from-layer="223" from-port="3" to-layer="224" to-port="0" />
		<edge from-layer="224" from-port="1" to-layer="226" to-port="0" />
		<edge from-layer="225" from-port="0" to-layer="226" to-port="1" />
		<edge from-layer="226" from-port="2" to-layer="232" to-port="0" />
		<edge from-layer="226" from-port="2" to-layer="227" to-port="0" />
		<edge from-layer="227" from-port="1" to-layer="228" to-port="1" />
		<edge from-layer="228" from-port="2" to-layer="230" to-port="0" />
		<edge from-layer="229" from-port="0" to-layer="230" to-port="1" />
		<edge from-layer="230" from-port="2" to-layer="243" to-port="2" />
		<edge from-layer="230" from-port="2" to-layer="243" to-port="0" />
		<edge from-layer="231" from-port="0" to-layer="232" to-port="1" />
		<edge from-layer="232" from-port="2" to-layer="234" to-port="0" />
		<edge from-layer="233" from-port="0" to-layer="234" to-port="1" />
		<edge from-layer="234" from-port="2" to-layer="238" to-port="0" />
		<edge from-layer="235" from-port="0" to-layer="237" to-port="0" />
		<edge from-layer="236" from-port="1" to-layer="237" to-port="1" />
		<edge from-layer="237" from-port="2" to-layer="238" to-port="1" />
		<edge from-layer="238" from-port="2" to-layer="240" to-port="0" />
		<edge from-layer="239" from-port="0" to-layer="240" to-port="1" />
		<edge from-layer="240" from-port="2" to-layer="242" to-port="0" />
		<edge from-layer="241" from-port="0" to-layer="242" to-port="1" />
		<edge from-layer="242" from-port="2" to-layer="243" to-port="3" />
		<edge from-layer="242" from-port="2" to-layer="243" to-port="1" />
		<edge from-layer="243" from-port="4" to-layer="245" to-port="0" />
		<edge from-layer="244" from-port="0" to-layer="245" to-port="1" />
		<edge from-layer="245" from-port="2" to-layer="246" to-port="1" />
		<edge from-layer="246" from-port="2" to-layer="248" to-port="0" />
		<edge from-layer="247" from-port="0" to-layer="248" to-port="1" />
		<edge from-layer="248" from-port="2" to-layer="250" to-port="0" />
		<edge from-layer="249" from-port="0" to-layer="250" to-port="1" />
		<edge from-layer="250" from-port="2" to-layer="364" to-port="0" />
		<edge from-layer="251" from-port="0" to-layer="359" to-port="0" />
		<edge from-layer="252" from-port="0" to-layer="325" to-port="0" />
		<edge from-layer="253" from-port="0" to-layer="254" to-port="1" />
		<edge from-layer="254" from-port="2" to-layer="256" to-port="0" />
		<edge from-layer="255" from-port="0" to-layer="256" to-port="1" />
		<edge from-layer="256" from-port="2" to-layer="257" to-port="0" />
		<edge from-layer="257" from-port="1" to-layer="259" to-port="0" />
		<edge from-layer="258" from-port="0" to-layer="259" to-port="1" />
		<edge from-layer="259" from-port="2" to-layer="261" to-port="0" />
		<edge from-layer="260" from-port="0" to-layer="261" to-port="1" />
		<edge from-layer="261" from-port="2" to-layer="262" to-port="0" />
		<edge from-layer="262" from-port="1" to-layer="264" to-port="0" />
		<edge from-layer="263" from-port="0" to-layer="264" to-port="1" />
		<edge from-layer="264" from-port="2" to-layer="266" to-port="0" />
		<edge from-layer="265" from-port="0" to-layer="266" to-port="1" />
		<edge from-layer="266" from-port="2" to-layer="281" to-port="1" />
		<edge from-layer="266" from-port="2" to-layer="268" to-port="0" />
		<edge from-layer="267" from-port="0" to-layer="268" to-port="1" />
		<edge from-layer="268" from-port="2" to-layer="270" to-port="0" />
		<edge from-layer="269" from-port="0" to-layer="270" to-port="1" />
		<edge from-layer="270" from-port="2" to-layer="271" to-port="0" />
		<edge from-layer="271" from-port="1" to-layer="273" to-port="0" />
		<edge from-layer="272" from-port="0" to-layer="273" to-port="1" />
		<edge from-layer="273" from-port="2" to-layer="275" to-port="0" />
		<edge from-layer="274" from-port="0" to-layer="275" to-port="1" />
		<edge from-layer="275" from-port="2" to-layer="276" to-port="0" />
		<edge from-layer="276" from-port="1" to-layer="278" to-port="0" />
		<edge from-layer="277" from-port="0" to-layer="278" to-port="1" />
		<edge from-layer="278" from-port="2" to-layer="280" to-port="0" />
		<edge from-layer="279" from-port="0" to-layer="280" to-port="1" />
		<edge from-layer="280" from-port="2" to-layer="281" to-port="0" />
		<edge from-layer="281" from-port="2" to-layer="283" to-port="0" />
		<edge from-layer="281" from-port="2" to-layer="296" to-port="1" />
		<edge from-layer="282" from-port="0" to-layer="283" to-port="1" />
		<edge from-layer="283" from-port="2" to-layer="285" to-port="0" />
		<edge from-layer="284" from-port="0" to-layer="285" to-port="1" />
		<edge from-layer="285" from-port="2" to-layer="286" to-port="0" />
		<edge from-layer="286" from-port="1" to-layer="288" to-port="0" />
		<edge from-layer="287" from-port="0" to-layer="288" to-port="1" />
		<edge from-layer="288" from-port="2" to-layer="290" to-port="0" />
		<edge from-layer="289" from-port="0" to-layer="290" to-port="1" />
		<edge from-layer="290" from-port="2" to-layer="291" to-port="0" />
		<edge from-layer="291" from-port="1" to-layer="293" to-port="0" />
		<edge from-layer="292" from-port="0" to-layer="293" to-port="1" />
		<edge from-layer="293" from-port="2" to-layer="295" to-port="0" />
		<edge from-layer="294" from-port="0" to-layer="295" to-port="1" />
		<edge from-layer="295" from-port="2" to-layer="296" to-port="0" />
		<edge from-layer="296" from-port="2" to-layer="298" to-port="0" />
		<edge from-layer="297" from-port="0" to-layer="298" to-port="1" />
		<edge from-layer="298" from-port="2" to-layer="300" to-port="0" />
		<edge from-layer="299" from-port="0" to-layer="300" to-port="1" />
		<edge from-layer="300" from-port="2" to-layer="301" to-port="0" />
		<edge from-layer="301" from-port="1" to-layer="303" to-port="0" />
		<edge from-layer="302" from-port="0" to-layer="303" to-port="1" />
		<edge from-layer="303" from-port="2" to-layer="305" to-port="0" />
		<edge from-layer="304" from-port="0" to-layer="305" to-port="1" />
		<edge from-layer="305" from-port="2" to-layer="306" to-port="0" />
		<edge from-layer="306" from-port="1" to-layer="308" to-port="0" />
		<edge from-layer="307" from-port="0" to-layer="308" to-port="1" />
		<edge from-layer="308" from-port="2" to-layer="310" to-port="0" />
		<edge from-layer="309" from-port="0" to-layer="310" to-port="1" />
		<edge from-layer="310" from-port="2" to-layer="400" to-port="0" />
		<edge from-layer="310" from-port="2" to-layer="312" to-port="0" />
		<edge from-layer="311" from-port="0" to-layer="312" to-port="1" />
		<edge from-layer="312" from-port="2" to-layer="314" to-port="0" />
		<edge from-layer="313" from-port="0" to-layer="314" to-port="1" />
		<edge from-layer="314" from-port="2" to-layer="315" to-port="0" />
		<edge from-layer="315" from-port="1" to-layer="317" to-port="0" />
		<edge from-layer="316" from-port="0" to-layer="317" to-port="1" />
		<edge from-layer="317" from-port="2" to-layer="319" to-port="0" />
		<edge from-layer="318" from-port="0" to-layer="319" to-port="1" />
		<edge from-layer="319" from-port="2" to-layer="480" to-port="0" />
		<edge from-layer="319" from-port="2" to-layer="320" to-port="0" />
		<edge from-layer="320" from-port="1" to-layer="323" to-port="0" />
		<edge from-layer="320" from-port="1" to-layer="334" to-port="0" />
		<edge from-layer="321" from-port="0" to-layer="323" to-port="1" />
		<edge from-layer="322" from-port="0" to-layer="323" to-port="2" />
		<edge from-layer="323" from-port="3" to-layer="325" to-port="1" />
		<edge from-layer="324" from-port="0" to-layer="325" to-port="2" />
		<edge from-layer="325" from-port="3" to-layer="326" to-port="0" />
		<edge from-layer="326" from-port="1" to-layer="328" to-port="0" />
		<edge from-layer="327" from-port="0" to-layer="328" to-port="1" />
		<edge from-layer="328" from-port="2" to-layer="330" to-port="0" />
		<edge from-layer="328" from-port="2" to-layer="349" to-port="0" />
		<edge from-layer="329" from-port="0" to-layer="330" to-port="1" />
		<edge from-layer="330" from-port="2" to-layer="341" to-port="0" />
		<edge from-layer="331" from-port="0" to-layer="336" to-port="0" />
		<edge from-layer="332" from-port="0" to-layer="334" to-port="1" />
		<edge from-layer="333" from-port="0" to-layer="334" to-port="2" />
		<edge from-layer="334" from-port="3" to-layer="336" to-port="1" />
		<edge from-layer="335" from-port="0" to-layer="336" to-port="2" />
		<edge from-layer="336" from-port="3" to-layer="337" to-port="0" />
		<edge from-layer="337" from-port="1" to-layer="339" to-port="0" />
		<edge from-layer="338" from-port="0" to-layer="339" to-port="1" />
		<edge from-layer="339" from-port="2" to-layer="340" to-port="0" />
		<edge from-layer="339" from-port="2" to-layer="345" to-port="0" />
		<edge from-layer="340" from-port="1" to-layer="341" to-port="1" />
		<edge from-layer="341" from-port="2" to-layer="343" to-port="0" />
		<edge from-layer="342" from-port="0" to-layer="343" to-port="1" />
		<edge from-layer="343" from-port="2" to-layer="356" to-port="2" />
		<edge from-layer="343" from-port="2" to-layer="356" to-port="0" />
		<edge from-layer="344" from-port="0" to-layer="345" to-port="1" />
		<edge from-layer="345" from-port="2" to-layer="347" to-port="0" />
		<edge from-layer="346" from-port="0" to-layer="347" to-port="1" />
		<edge from-layer="347" from-port="2" to-layer="351" to-port="0" />
		<edge from-layer="348" from-port="0" to-layer="350" to-port="0" />
		<edge from-layer="349" from-port="1" to-layer="350" to-port="1" />
		<edge from-layer="350" from-port="2" to-layer="351" to-port="1" />
		<edge from-layer="351" from-port="2" to-layer="353" to-port="0" />
		<edge from-layer="352" from-port="0" to-layer="353" to-port="1" />
		<edge from-layer="353" from-port="2" to-layer="355" to-port="0" />
		<edge from-layer="354" from-port="0" to-layer="355" to-port="1" />
		<edge from-layer="355" from-port="2" to-layer="356" to-port="1" />
		<edge from-layer="355" from-port="2" to-layer="356" to-port="3" />
		<edge from-layer="356" from-port="4" to-layer="358" to-port="0" />
		<edge from-layer="357" from-port="0" to-layer="358" to-port="1" />
		<edge from-layer="358" from-port="2" to-layer="359" to-port="1" />
		<edge from-layer="359" from-port="2" to-layer="361" to-port="0" />
		<edge from-layer="360" from-port="0" to-layer="361" to-port="1" />
		<edge from-layer="361" from-port="2" to-layer="363" to-port="0" />
		<edge from-layer="362" from-port="0" to-layer="363" to-port="1" />
		<edge from-layer="363" from-port="2" to-layer="364" to-port="1" />
		<edge from-layer="364" from-port="2" to-layer="374" to-port="0" />
		<edge from-layer="364" from-port="2" to-layer="368" to-port="0" />
		<edge from-layer="365" from-port="0" to-layer="368" to-port="1" />
		<edge from-layer="366" from-port="0" to-layer="368" to-port="2" />
		<edge from-layer="367" from-port="0" to-layer="368" to-port="3" />
		<edge from-layer="368" from-port="4" to-layer="370" to-port="0" />
		<edge from-layer="369" from-port="0" to-layer="370" to-port="1" />
		<edge from-layer="370" from-port="2" to-layer="377" to-port="0" />
		<edge from-layer="370" from-port="2" to-layer="380" to-port="1" />
		<edge from-layer="371" from-port="0" to-layer="374" to-port="1" />
		<edge from-layer="372" from-port="0" to-layer="374" to-port="2" />
		<edge from-layer="373" from-port="0" to-layer="374" to-port="3" />
		<edge from-layer="374" from-port="4" to-layer="376" to-port="0" />
		<edge from-layer="375" from-port="0" to-layer="376" to-port="1" />
		<edge from-layer="376" from-port="2" to-layer="377" to-port="1" />
		<edge from-layer="376" from-port="2" to-layer="380" to-port="0" />
		<edge from-layer="377" from-port="2" to-layer="379" to-port="0" />
		<edge from-layer="378" from-port="0" to-layer="379" to-port="1" />
		<edge from-layer="379" from-port="2" to-layer="421" to-port="0" />
		<edge from-layer="380" from-port="2" to-layer="420" to-port="0" />
		<edge from-layer="380" from-port="2" to-layer="428" to-port="0" />
		<edge from-layer="381" from-port="0" to-layer="382" to-port="1" />
		<edge from-layer="382" from-port="2" to-layer="384" to-port="0" />
		<edge from-layer="383" from-port="0" to-layer="384" to-port="1" />
		<edge from-layer="384" from-port="2" to-layer="385" to-port="0" />
		<edge from-layer="385" from-port="1" to-layer="387" to-port="0" />
		<edge from-layer="386" from-port="0" to-layer="387" to-port="1" />
		<edge from-layer="387" from-port="2" to-layer="389" to-port="0" />
		<edge from-layer="388" from-port="0" to-layer="389" to-port="1" />
		<edge from-layer="389" from-port="2" to-layer="391" to-port="0" />
		<edge from-layer="390" from-port="0" to-layer="391" to-port="1" />
		<edge from-layer="391" from-port="2" to-layer="398" to-port="0" />
		<edge from-layer="392" from-port="0" to-layer="394" to-port="1" />
		<edge from-layer="393" from-port="0" to-layer="394" to-port="2" />
		<edge from-layer="394" from-port="3" to-layer="472" to-port="0" />
		<edge from-layer="394" from-port="3" to-layer="397" to-port="0" />
		<edge from-layer="395" from-port="0" to-layer="397" to-port="1" />
		<edge from-layer="396" from-port="0" to-layer="397" to-port="2" />
		<edge from-layer="397" from-port="3" to-layer="398" to-port="1" />
		<edge from-layer="397" from-port="3" to-layer="410" to-port="1" />
		<edge from-layer="398" from-port="2" to-layer="411" to-port="0" />
		<edge from-layer="399" from-port="0" to-layer="400" to-port="1" />
		<edge from-layer="400" from-port="2" to-layer="402" to-port="0" />
		<edge from-layer="401" from-port="0" to-layer="402" to-port="1" />
		<edge from-layer="402" from-port="2" to-layer="403" to-port="0" />
		<edge from-layer="403" from-port="1" to-layer="405" to-port="0" />
		<edge from-layer="404" from-port="0" to-layer="405" to-port="1" />
		<edge from-layer="405" from-port="2" to-layer="407" to-port="0" />
		<edge from-layer="406" from-port="0" to-layer="407" to-port="1" />
		<edge from-layer="407" from-port="2" to-layer="409" to-port="0" />
		<edge from-layer="408" from-port="0" to-layer="409" to-port="1" />
		<edge from-layer="409" from-port="2" to-layer="410" to-port="0" />
		<edge from-layer="410" from-port="2" to-layer="411" to-port="1" />
		<edge from-layer="411" from-port="2" to-layer="456" to-port="0" />
		<edge from-layer="411" from-port="2" to-layer="413" to-port="0" />
		<edge from-layer="412" from-port="0" to-layer="413" to-port="1" />
		<edge from-layer="413" from-port="2" to-layer="415" to-port="0" />
		<edge from-layer="414" from-port="0" to-layer="415" to-port="1" />
		<edge from-layer="415" from-port="2" to-layer="419" to-port="0" />
		<edge from-layer="415" from-port="2" to-layer="425" to-port="0" />
		<edge from-layer="416" from-port="0" to-layer="419" to-port="1" />
		<edge from-layer="417" from-port="0" to-layer="419" to-port="2" />
		<edge from-layer="418" from-port="0" to-layer="419" to-port="3" />
		<edge from-layer="419" from-port="4" to-layer="420" to-port="1" />
		<edge from-layer="420" from-port="2" to-layer="421" to-port="1" />
		<edge from-layer="421" from-port="2" to-layer="431" to-port="0" />
		<edge from-layer="421" from-port="2" to-layer="444" to-port="0" />
		<edge from-layer="422" from-port="0" to-layer="425" to-port="1" />
		<edge from-layer="423" from-port="0" to-layer="425" to-port="2" />
		<edge from-layer="424" from-port="0" to-layer="425" to-port="3" />
		<edge from-layer="425" from-port="4" to-layer="426" to-port="0" />
		<edge from-layer="426" from-port="1" to-layer="427" to-port="0" />
		<edge from-layer="427" from-port="1" to-layer="428" to-port="1" />
		<edge from-layer="428" from-port="2" to-layer="430" to-port="0" />
		<edge from-layer="429" from-port="0" to-layer="430" to-port="1" />
		<edge from-layer="430" from-port="2" to-layer="431" to-port="1" />
		<edge from-layer="430" from-port="2" to-layer="444" to-port="1" />
		<edge from-layer="431" from-port="2" to-layer="440" to-port="0" />
		<edge from-layer="431" from-port="2" to-layer="434" to-port="0" />
		<edge from-layer="432" from-port="0" to-layer="434" to-port="1" />
		<edge from-layer="432" from-port="0" to-layer="446" to-port="1" />
		<edge from-layer="432" from-port="0" to-layer="560" to-port="1" />
		<edge from-layer="433" from-port="0" to-layer="434" to-port="2" />
		<edge from-layer="434" from-port="3" to-layer="435" to-port="0" />
		<edge from-layer="435" from-port="1" to-layer="437" to-port="0" />
		<edge from-layer="436" from-port="0" to-layer="437" to-port="1" />
		<edge from-layer="437" from-port="2" to-layer="455" to-port="0" />
		<edge from-layer="438" from-port="0" to-layer="565" to-port="1" />
		<edge from-layer="438" from-port="0" to-layer="440" to-port="1" />
		<edge from-layer="438" from-port="0" to-layer="451" to-port="1" />
		<edge from-layer="439" from-port="0" to-layer="440" to-port="2" />
		<edge from-layer="440" from-port="3" to-layer="441" to-port="0" />
		<edge from-layer="441" from-port="1" to-layer="443" to-port="0" />
		<edge from-layer="442" from-port="0" to-layer="443" to-port="1" />
		<edge from-layer="443" from-port="2" to-layer="455" to-port="1" />
		<edge from-layer="444" from-port="2" to-layer="451" to-port="0" />
		<edge from-layer="444" from-port="2" to-layer="446" to-port="0" />
		<edge from-layer="445" from-port="0" to-layer="446" to-port="2" />
		<edge from-layer="446" from-port="3" to-layer="447" to-port="0" />
		<edge from-layer="447" from-port="1" to-layer="449" to-port="0" />
		<edge from-layer="448" from-port="0" to-layer="449" to-port="1" />
		<edge from-layer="449" from-port="2" to-layer="455" to-port="2" />
		<edge from-layer="450" from-port="0" to-layer="451" to-port="2" />
		<edge from-layer="451" from-port="3" to-layer="452" to-port="0" />
		<edge from-layer="452" from-port="1" to-layer="454" to-port="0" />
		<edge from-layer="453" from-port="0" to-layer="454" to-port="1" />
		<edge from-layer="454" from-port="2" to-layer="455" to-port="3" />
		<edge from-layer="455" from-port="4" to-layer="457" to-port="0" />
		<edge from-layer="456" from-port="1" to-layer="457" to-port="1" />
		<edge from-layer="457" from-port="2" to-layer="467" to-port="0" />
		<edge from-layer="457" from-port="2" to-layer="458" to-port="0" />
		<edge from-layer="458" from-port="1" to-layer="514" to-port="0" />
		<edge from-layer="458" from-port="1" to-layer="462" to-port="0" />
		<edge from-layer="458" from-port="1" to-layer="522" to-port="0" />
		<edge from-layer="459" from-port="0" to-layer="462" to-port="1" />
		<edge from-layer="460" from-port="0" to-layer="462" to-port="2" />
		<edge from-layer="461" from-port="0" to-layer="462" to-port="3" />
		<edge from-layer="462" from-port="4" to-layer="464" to-port="0" />
		<edge from-layer="463" from-port="0" to-layer="464" to-port="1" />
		<edge from-layer="464" from-port="2" to-layer="466" to-port="0" />
		<edge from-layer="465" from-port="0" to-layer="466" to-port="1" />
		<edge from-layer="466" from-port="2" to-layer="467" to-port="1" />
		<edge from-layer="467" from-port="2" to-layer="518" to-port="0" />
		<edge from-layer="468" from-port="0" to-layer="469" to-port="1" />
		<edge from-layer="469" from-port="2" to-layer="473" to-port="0" />
		<edge from-layer="470" from-port="0" to-layer="472" to-port="1" />
		<edge from-layer="471" from-port="0" to-layer="472" to-port="2" />
		<edge from-layer="472" from-port="3" to-layer="473" to-port="1" />
		<edge from-layer="472" from-port="3" to-layer="481" to-port="1" />
		<edge from-layer="473" from-port="2" to-layer="474" to-port="0" />
		<edge from-layer="474" from-port="1" to-layer="478" to-port="0" />
		<edge from-layer="475" from-port="0" to-layer="478" to-port="1" />
		<edge from-layer="476" from-port="0" to-layer="478" to-port="2" />
		<edge from-layer="477" from-port="0" to-layer="478" to-port="3" />
		<edge from-layer="478" from-port="4" to-layer="487" to-port="0" />
		<edge from-layer="479" from-port="0" to-layer="480" to-port="1" />
		<edge from-layer="480" from-port="2" to-layer="481" to-port="0" />
		<edge from-layer="481" from-port="2" to-layer="482" to-port="0" />
		<edge from-layer="482" from-port="1" to-layer="486" to-port="0" />
		<edge from-layer="483" from-port="0" to-layer="486" to-port="1" />
		<edge from-layer="484" from-port="0" to-layer="486" to-port="2" />
		<edge from-layer="485" from-port="0" to-layer="486" to-port="3" />
		<edge from-layer="486" from-port="4" to-layer="487" to-port="1" />
		<edge from-layer="487" from-port="2" to-layer="504" to-port="0" />
		<edge from-layer="487" from-port="2" to-layer="536" to-port="0" />
		<edge from-layer="487" from-port="2" to-layer="489" to-port="0" />
		<edge from-layer="488" from-port="0" to-layer="489" to-port="1" />
		<edge from-layer="489" from-port="2" to-layer="491" to-port="0" />
		<edge from-layer="489" from-port="2" to-layer="502" to-port="0" />
		<edge from-layer="490" from-port="0" to-layer="495" to-port="0" />
		<edge from-layer="491" from-port="1" to-layer="494" to-port="0" />
		<edge from-layer="492" from-port="0" to-layer="494" to-port="1" />
		<edge from-layer="493" from-port="0" to-layer="494" to-port="2" />
		<edge from-layer="494" from-port="3" to-layer="495" to-port="1" />
		<edge from-layer="494" from-port="3" to-layer="497" to-port="2" />
		<edge from-layer="495" from-port="2" to-layer="497" to-port="0" />
		<edge from-layer="496" from-port="0" to-layer="497" to-port="1" />
		<edge from-layer="497" from-port="3" to-layer="499" to-port="0" />
		<edge from-layer="498" from-port="0" to-layer="499" to-port="1" />
		<edge from-layer="499" from-port="2" to-layer="501" to-port="0" />
		<edge from-layer="500" from-port="0" to-layer="501" to-port="1" />
		<edge from-layer="501" from-port="2" to-layer="502" to-port="1" />
		<edge from-layer="502" from-port="3" to-layer="541" to-port="0" />
		<edge from-layer="502" from-port="3" to-layer="516" to-port="0" />
		<edge from-layer="503" from-port="0" to-layer="509" to-port="0" />
		<edge from-layer="504" from-port="1" to-layer="539" to-port="0" />
		<edge from-layer="504" from-port="1" to-layer="547" to-port="0" />
		<edge from-layer="504" from-port="1" to-layer="531" to-port="0" />
		<edge from-layer="504" from-port="1" to-layer="507" to-port="0" />
		<edge from-layer="505" from-port="0" to-layer="507" to-port="1" />
		<edge from-layer="506" from-port="0" to-layer="507" to-port="2" />
		<edge from-layer="507" from-port="3" to-layer="509" to-port="1" />
		<edge from-layer="507" from-port="3" to-layer="571" to-port="0" />
		<edge from-layer="508" from-port="0" to-layer="509" to-port="2" />
		<edge from-layer="509" from-port="3" to-layer="562" to-port="0" />
		<edge from-layer="509" from-port="3" to-layer="511" to-port="0" />
		<edge from-layer="510" from-port="0" to-layer="511" to-port="1" />
		<edge from-layer="511" from-port="2" to-layer="515" to-port="0" />
		<edge from-layer="511" from-port="2" to-layer="540" to-port="0" />
		<edge from-layer="512" from-port="0" to-layer="514" to-port="1" />
		<edge from-layer="513" from-port="0" to-layer="514" to-port="2" />
		<edge from-layer="514" from-port="3" to-layer="515" to-port="1" />
		<edge from-layer="515" from-port="2" to-layer="516" to-port="1" />
		<edge from-layer="516" from-port="2" to-layer="525" to-port="0" />
		<edge from-layer="516" from-port="2" to-layer="518" to-port="1" />
		<edge from-layer="517" from-port="0" to-layer="518" to-port="2" />
		<edge from-layer="518" from-port="3" to-layer="524" to-port="0" />
		<edge from-layer="519" from-port="0" to-layer="523" to-port="0" />
		<edge from-layer="520" from-port="0" to-layer="522" to-port="1" />
		<edge from-layer="521" from-port="0" to-layer="522" to-port="2" />
		<edge from-layer="522" from-port="3" to-layer="523" to-port="1" />
		<edge from-layer="522" from-port="3" to-layer="526" to-port="1" />
		<edge from-layer="523" from-port="2" to-layer="524" to-port="1" />
		<edge from-layer="524" from-port="2" to-layer="527" to-port="0" />
		<edge from-layer="525" from-port="1" to-layer="526" to-port="0" />
		<edge from-layer="526" from-port="2" to-layer="527" to-port="1" />
		<edge from-layer="527" from-port="2" to-layer="558" to-port="0" />
		<edge from-layer="527" from-port="2" to-layer="589" to-port="0" />
		<edge from-layer="527" from-port="2" to-layer="580" to-port="0" />
		<edge from-layer="528" from-port="0" to-layer="531" to-port="1" />
		<edge from-layer="529" from-port="0" to-layer="531" to-port="2" />
		<edge from-layer="530" from-port="0" to-layer="531" to-port="3" />
		<edge from-layer="531" from-port="4" to-layer="533" to-port="0" />
		<edge from-layer="532" from-port="0" to-layer="533" to-port="1" />
		<edge from-layer="533" from-port="2" to-layer="535" to-port="0" />
		<edge from-layer="534" from-port="0" to-layer="535" to-port="1" />
		<edge from-layer="535" from-port="2" to-layer="536" to-port="1" />
		<edge from-layer="536" from-port="2" to-layer="543" to-port="0" />
		<edge from-layer="537" from-port="0" to-layer="539" to-port="1" />
		<edge from-layer="538" from-port="0" to-layer="539" to-port="2" />
		<edge from-layer="539" from-port="3" to-layer="540" to-port="1" />
		<edge from-layer="540" from-port="2" to-layer="541" to-port="1" />
		<edge from-layer="541" from-port="2" to-layer="550" to-port="0" />
		<edge from-layer="541" from-port="2" to-layer="543" to-port="1" />
		<edge from-layer="542" from-port="0" to-layer="543" to-port="2" />
		<edge from-layer="543" from-port="3" to-layer="549" to-port="0" />
		<edge from-layer="544" from-port="0" to-layer="548" to-port="0" />
		<edge from-layer="545" from-port="0" to-layer="547" to-port="1" />
		<edge from-layer="546" from-port="0" to-layer="547" to-port="2" />
		<edge from-layer="547" from-port="3" to-layer="551" to-port="1" />
		<edge from-layer="547" from-port="3" to-layer="548" to-port="1" />
		<edge from-layer="548" from-port="2" to-layer="549" to-port="1" />
		<edge from-layer="549" from-port="2" to-layer="552" to-port="0" />
		<edge from-layer="550" from-port="1" to-layer="551" to-port="0" />
		<edge from-layer="551" from-port="2" to-layer="552" to-port="1" />
		<edge from-layer="552" from-port="2" to-layer="554" to-port="0" />
		<edge from-layer="553" from-port="0" to-layer="554" to-port="1" />
		<edge from-layer="554" from-port="2" to-layer="609" to-port="0" />
		<edge from-layer="554" from-port="2" to-layer="618" to-port="0" />
		<edge from-layer="554" from-port="2" to-layer="558" to-port="1" />
		<edge from-layer="555" from-port="0" to-layer="558" to-port="2" />
		<edge from-layer="556" from-port="0" to-layer="558" to-port="3" />
		<edge from-layer="557" from-port="0" to-layer="558" to-port="4" />
		<edge from-layer="558" from-port="5" to-layer="560" to-port="0" />
		<edge from-layer="558" from-port="5" to-layer="565" to-port="0" />
		<edge from-layer="558" from-port="5" to-layer="592" to-port="0" />
		<edge from-layer="559" from-port="0" to-layer="560" to-port="2" />
		<edge from-layer="560" from-port="3" to-layer="563" to-port="0" />
		<edge from-layer="560" from-port="3" to-layer="596" to-port="0" />
		<edge from-layer="560" from-port="3" to-layer="628" to-port="0" />
		<edge from-layer="561" from-port="0" to-layer="562" to-port="1" />
		<edge from-layer="562" from-port="2" to-layer="563" to-port="1" />
		<edge from-layer="563" from-port="2" to-layer="576" to-port="0" />
		<edge from-layer="563" from-port="2" to-layer="579" to-port="0" />
		<edge from-layer="564" from-port="0" to-layer="565" to-port="2" />
		<edge from-layer="565" from-port="3" to-layer="622" to-port="0" />
		<edge from-layer="565" from-port="3" to-layer="567" to-port="0" />
		<edge from-layer="566" from-port="0" to-layer="567" to-port="1" />
		<edge from-layer="567" from-port="2" to-layer="569" to-port="0" />
		<edge from-layer="568" from-port="0" to-layer="569" to-port="1" />
		<edge from-layer="569" from-port="2" to-layer="574" to-port="0" />
		<edge from-layer="570" from-port="0" to-layer="571" to-port="1" />
		<edge from-layer="571" from-port="2" to-layer="645" to-port="0" />
		<edge from-layer="571" from-port="2" to-layer="573" to-port="0" />
		<edge from-layer="572" from-port="0" to-layer="573" to-port="1" />
		<edge from-layer="573" from-port="2" to-layer="574" to-port="1" />
		<edge from-layer="574" from-port="2" to-layer="576" to-port="1" />
		<edge from-layer="575" from-port="0" to-layer="576" to-port="2" />
		<edge from-layer="576" from-port="3" to-layer="658" to-port="0" />
		<edge from-layer="577" from-port="0" to-layer="657" to-port="0" />
		<edge from-layer="578" from-port="0" to-layer="579" to-port="1" />
		<edge from-layer="579" from-port="2" to-layer="648" to-port="0" />
		<edge from-layer="580" from-port="1" to-layer="595" to-port="0" />
		<edge from-layer="580" from-port="1" to-layer="584" to-port="0" />
		<edge from-layer="580" from-port="1" to-layer="603" to-port="0" />
		<edge from-layer="581" from-port="0" to-layer="584" to-port="1" />
		<edge from-layer="582" from-port="0" to-layer="584" to-port="2" />
		<edge from-layer="583" from-port="0" to-layer="584" to-port="3" />
		<edge from-layer="584" from-port="4" to-layer="586" to-port="0" />
		<edge from-layer="585" from-port="0" to-layer="586" to-port="1" />
		<edge from-layer="586" from-port="2" to-layer="588" to-port="0" />
		<edge from-layer="587" from-port="0" to-layer="588" to-port="1" />
		<edge from-layer="588" from-port="2" to-layer="589" to-port="1" />
		<edge from-layer="589" from-port="2" to-layer="599" to-port="0" />
		<edge from-layer="590" from-port="0" to-layer="592" to-port="1" />
		<edge from-layer="591" from-port="0" to-layer="592" to-port="2" />
		<edge from-layer="592" from-port="3" to-layer="623" to-port="0" />
		<edge from-layer="592" from-port="3" to-layer="597" to-port="0" />
		<edge from-layer="593" from-port="0" to-layer="595" to-port="1" />
		<edge from-layer="594" from-port="0" to-layer="595" to-port="2" />
		<edge from-layer="595" from-port="3" to-layer="596" to-port="1" />
		<edge from-layer="596" from-port="2" to-layer="597" to-port="1" />
		<edge from-layer="597" from-port="2" to-layer="606" to-port="0" />
		<edge from-layer="597" from-port="2" to-layer="599" to-port="1" />
		<edge from-layer="598" from-port="0" to-layer="599" to-port="2" />
		<edge from-layer="599" from-port="3" to-layer="605" to-port="0" />
		<edge from-layer="600" from-port="0" to-layer="604" to-port="0" />
		<edge from-layer="601" from-port="0" to-layer="603" to-port="1" />
		<edge from-layer="602" from-port="0" to-layer="603" to-port="2" />
		<edge from-layer="603" from-port="3" to-layer="607" to-port="1" />
		<edge from-layer="603" from-port="3" to-layer="604" to-port="1" />
		<edge from-layer="604" from-port="2" to-layer="605" to-port="1" />
		<edge from-layer="605" from-port="2" to-layer="608" to-port="0" />
		<edge from-layer="606" from-port="1" to-layer="607" to-port="0" />
		<edge from-layer="607" from-port="2" to-layer="608" to-port="1" />
		<edge from-layer="608" from-port="2" to-layer="638" to-port="0" />
		<edge from-layer="609" from-port="1" to-layer="621" to-port="0" />
		<edge from-layer="609" from-port="1" to-layer="626" to-port="0" />
		<edge from-layer="609" from-port="1" to-layer="613" to-port="0" />
		<edge from-layer="610" from-port="0" to-layer="613" to-port="1" />
		<edge from-layer="611" from-port="0" to-layer="613" to-port="2" />
		<edge from-layer="612" from-port="0" to-layer="613" to-port="3" />
		<edge from-layer="613" from-port="4" to-layer="615" to-port="0" />
		<edge from-layer="614" from-port="0" to-layer="615" to-port="1" />
		<edge from-layer="615" from-port="2" to-layer="617" to-port="0" />
		<edge from-layer="616" from-port="0" to-layer="617" to-port="1" />
		<edge from-layer="617" from-port="2" to-layer="618" to-port="1" />
		<edge from-layer="618" from-port="2" to-layer="631" to-port="0" />
		<edge from-layer="619" from-port="0" to-layer="621" to-port="1" />
		<edge from-layer="620" from-port="0" to-layer="621" to-port="2" />
		<edge from-layer="621" from-port="3" to-layer="622" to-port="1" />
		<edge from-layer="621" from-port="3" to-layer="627" to-port="0" />
		<edge from-layer="622" from-port="2" to-layer="623" to-port="1" />
		<edge from-layer="623" from-port="2" to-layer="629" to-port="0" />
		<edge from-layer="624" from-port="0" to-layer="626" to-port="1" />
		<edge from-layer="625" from-port="0" to-layer="626" to-port="2" />
		<edge from-layer="626" from-port="3" to-layer="627" to-port="1" />
		<edge from-layer="627" from-port="2" to-layer="628" to-port="1" />
		<edge from-layer="628" from-port="2" to-layer="629" to-port="1" />
		<edge from-layer="629" from-port="2" to-layer="634" to-port="0" />
		<edge from-layer="629" from-port="2" to-layer="631" to-port="1" />
		<edge from-layer="630" from-port="0" to-layer="631" to-port="2" />
		<edge from-layer="631" from-port="3" to-layer="633" to-port="0" />
		<edge from-layer="632" from-port="0" to-layer="633" to-port="1" />
		<edge from-layer="633" from-port="2" to-layer="635" to-port="0" />
		<edge from-layer="634" from-port="1" to-layer="635" to-port="1" />
		<edge from-layer="635" from-port="2" to-layer="637" to-port="0" />
		<edge from-layer="636" from-port="0" to-layer="637" to-port="1" />
		<edge from-layer="637" from-port="2" to-layer="638" to-port="1" />
		<edge from-layer="638" from-port="2" to-layer="640" to-port="0" />
		<edge from-layer="639" from-port="0" to-layer="640" to-port="1" />
		<edge from-layer="640" from-port="2" to-layer="642" to-port="0" />
		<edge from-layer="641" from-port="0" to-layer="642" to-port="1" />
		<edge from-layer="642" from-port="2" to-layer="646" to-port="0" />
		<edge from-layer="643" from-port="0" to-layer="645" to-port="1" />
		<edge from-layer="644" from-port="0" to-layer="645" to-port="2" />
		<edge from-layer="645" from-port="3" to-layer="646" to-port="1" />
		<edge from-layer="646" from-port="2" to-layer="648" to-port="1" />
		<edge from-layer="647" from-port="0" to-layer="648" to-port="2" />
		<edge from-layer="648" from-port="3" to-layer="649" to-port="0" />
		<edge from-layer="648" from-port="3" to-layer="674" to-port="0" />
		<edge from-layer="649" from-port="1" to-layer="652" to-port="0" />
		<edge from-layer="650" from-port="0" to-layer="652" to-port="1" />
		<edge from-layer="651" from-port="0" to-layer="652" to-port="2" />
		<edge from-layer="652" from-port="3" to-layer="654" to-port="0" />
		<edge from-layer="652" from-port="3" to-layer="693" to-port="1" />
		<edge from-layer="653" from-port="0" to-layer="654" to-port="1" />
		<edge from-layer="654" from-port="2" to-layer="656" to-port="0" />
		<edge from-layer="654" from-port="2" to-layer="672" to-port="0" />
		<edge from-layer="655" from-port="0" to-layer="656" to-port="1" />
		<edge from-layer="656" from-port="2" to-layer="657" to-port="1" />
		<edge from-layer="657" from-port="2" to-layer="658" to-port="1" />
		<edge from-layer="658" from-port="2" to-layer="659" to-port="0" />
		<edge from-layer="658" from-port="2" to-layer="668" to-port="0" />
		<edge from-layer="659" from-port="1" to-layer="663" to-port="0" />
		<edge from-layer="659" from-port="1" to-layer="698" to-port="0" />
		<edge from-layer="660" from-port="0" to-layer="663" to-port="1" />
		<edge from-layer="661" from-port="0" to-layer="663" to-port="2" />
		<edge from-layer="662" from-port="0" to-layer="663" to-port="3" />
		<edge from-layer="663" from-port="4" to-layer="665" to-port="0" />
		<edge from-layer="664" from-port="0" to-layer="665" to-port="1" />
		<edge from-layer="665" from-port="2" to-layer="667" to-port="0" />
		<edge from-layer="666" from-port="0" to-layer="667" to-port="1" />
		<edge from-layer="667" from-port="2" to-layer="668" to-port="1" />
		<edge from-layer="668" from-port="2" to-layer="702" to-port="0" />
		<edge from-layer="669" from-port="0" to-layer="673" to-port="0" />
		<edge from-layer="670" from-port="0" to-layer="672" to-port="1" />
		<edge from-layer="671" from-port="0" to-layer="672" to-port="2" />
		<edge from-layer="672" from-port="3" to-layer="673" to-port="1" />
		<edge from-layer="673" from-port="2" to-layer="674" to-port="1" />
		<edge from-layer="674" from-port="2" to-layer="677" to-port="0" />
		<edge from-layer="674" from-port="2" to-layer="717" to-port="0" />
		<edge from-layer="674" from-port="2" to-layer="708" to-port="0" />
		<edge from-layer="675" from-port="0" to-layer="677" to-port="1" />
		<edge from-layer="676" from-port="0" to-layer="677" to-port="2" />
		<edge from-layer="677" from-port="3" to-layer="679" to-port="0" />
		<edge from-layer="677" from-port="3" to-layer="690" to-port="0" />
		<edge from-layer="678" from-port="0" to-layer="683" to-port="0" />
		<edge from-layer="679" from-port="1" to-layer="682" to-port="0" />
		<edge from-layer="680" from-port="0" to-layer="682" to-port="1" />
		<edge from-layer="681" from-port="0" to-layer="682" to-port="2" />
		<edge from-layer="682" from-port="3" to-layer="685" to-port="2" />
		<edge from-layer="682" from-port="3" to-layer="683" to-port="1" />
		<edge from-layer="683" from-port="2" to-layer="685" to-port="0" />
		<edge from-layer="684" from-port="0" to-layer="685" to-port="1" />
		<edge from-layer="685" from-port="3" to-layer="687" to-port="0" />
		<edge from-layer="686" from-port="0" to-layer="687" to-port="1" />
		<edge from-layer="687" from-port="2" to-layer="689" to-port="0" />
		<edge from-layer="688" from-port="0" to-layer="689" to-port="1" />
		<edge from-layer="689" from-port="2" to-layer="690" to-port="1" />
		<edge from-layer="690" from-port="3" to-layer="722" to-port="0" />
		<edge from-layer="690" from-port="3" to-layer="700" to-port="0" />
		<edge from-layer="691" from-port="0" to-layer="693" to-port="0" />
		<edge from-layer="692" from-port="0" to-layer="693" to-port="2" />
		<edge from-layer="693" from-port="3" to-layer="695" to-port="0" />
		<edge from-layer="694" from-port="0" to-layer="695" to-port="1" />
		<edge from-layer="695" from-port="2" to-layer="721" to-port="0" />
		<edge from-layer="695" from-port="2" to-layer="699" to-port="0" />
		<edge from-layer="696" from-port="0" to-layer="698" to-port="1" />
		<edge from-layer="697" from-port="0" to-layer="698" to-port="2" />
		<edge from-layer="698" from-port="3" to-layer="699" to-port="1" />
		<edge from-layer="699" from-port="2" to-layer="700" to-port="1" />
		<edge from-layer="700" from-port="2" to-layer="705" to-port="0" />
		<edge from-layer="700" from-port="2" to-layer="702" to-port="1" />
		<edge from-layer="701" from-port="0" to-layer="702" to-port="2" />
		<edge from-layer="702" from-port="3" to-layer="704" to-port="0" />
		<edge from-layer="703" from-port="0" to-layer="704" to-port="1" />
		<edge from-layer="704" from-port="2" to-layer="706" to-port="0" />
		<edge from-layer="705" from-port="1" to-layer="706" to-port="1" />
		<edge from-layer="706" from-port="2" to-layer="707" to-port="0" />
		<edge from-layer="708" from-port="1" to-layer="712" to-port="0" />
		<edge from-layer="708" from-port="1" to-layer="728" to-port="0" />
		<edge from-layer="708" from-port="1" to-layer="720" to-port="0" />
		<edge from-layer="709" from-port="0" to-layer="712" to-port="1" />
		<edge from-layer="710" from-port="0" to-layer="712" to-port="2" />
		<edge from-layer="711" from-port="0" to-layer="712" to-port="3" />
		<edge from-layer="712" from-port="4" to-layer="714" to-port="0" />
		<edge from-layer="713" from-port="0" to-layer="714" to-port="1" />
		<edge from-layer="714" from-port="2" to-layer="716" to-port="0" />
		<edge from-layer="715" from-port="0" to-layer="716" to-port="1" />
		<edge from-layer="716" from-port="2" to-layer="717" to-port="1" />
		<edge from-layer="717" from-port="2" to-layer="724" to-port="0" />
		<edge from-layer="718" from-port="0" to-layer="720" to-port="1" />
		<edge from-layer="719" from-port="0" to-layer="720" to-port="2" />
		<edge from-layer="720" from-port="3" to-layer="721" to-port="1" />
		<edge from-layer="721" from-port="2" to-layer="722" to-port="1" />
		<edge from-layer="722" from-port="2" to-layer="724" to-port="1" />
		<edge from-layer="722" from-port="2" to-layer="731" to-port="0" />
		<edge from-layer="723" from-port="0" to-layer="724" to-port="2" />
		<edge from-layer="724" from-port="3" to-layer="730" to-port="0" />
		<edge from-layer="725" from-port="0" to-layer="729" to-port="0" />
		<edge from-layer="726" from-port="0" to-layer="728" to-port="1" />
		<edge from-layer="727" from-port="0" to-layer="728" to-port="2" />
		<edge from-layer="728" from-port="3" to-layer="729" to-port="1" />
		<edge from-layer="728" from-port="3" to-layer="732" to-port="1" />
		<edge from-layer="729" from-port="2" to-layer="730" to-port="1" />
		<edge from-layer="730" from-port="2" to-layer="733" to-port="0" />
		<edge from-layer="731" from-port="1" to-layer="732" to-port="0" />
		<edge from-layer="732" from-port="2" to-layer="733" to-port="1" />
		<edge from-layer="733" from-port="2" to-layer="734" to-port="0" />
	</edges>
	<rt_info>
		<Runtime_version value="2024.1.0-15008-f4afc983258-releases/2024/1" />
		<conversion_parameters>
			<is_python_object value="False" />
		</conversion_parameters>
		<model_info>
			<iou_threshold value="0.5" />
			<label_ids value="Reference_0 Red_Clover_1 Common_Pea_2 Austrian_Winter_Pea_3 Marrowfat_Pea_4 Sugar_Beet_5 Chickpea_6 Buckwheat_7 Orange_Corn_8 Sweet_Corn_9 Faba_Bean_10 Soybean_11 Common_Wheat_12 Hairy_Vetch_13 Sunflower_14 Oat_15 Carrot_16 Mustard_17 Oil_Radish_18 Rye_19 Malted_Barley_20 Sorghum_21" />
			<label_info value="{&quot;label_names&quot;: [&quot;Reference_0&quot;, &quot;Red_Clover_1&quot;, &quot;Common_Pea_2&quot;, &quot;Austrian_Winter_Pea_3&quot;, &quot;Marrowfat_Pea_4&quot;, &quot;Sugar_Beet_5&quot;, &quot;Chickpea_6&quot;, &quot;Buckwheat_7&quot;, &quot;Orange_Corn_8&quot;, &quot;Sweet_Corn_9&quot;, &quot;Faba_Bean_10&quot;, &quot;Soybean_11&quot;, &quot;Common_Wheat_12&quot;, &quot;Hairy_Vetch_13&quot;, &quot;Sunflower_14&quot;, &quot;Oat_15&quot;, &quot;Carrot_16&quot;, &quot;Mustard_17&quot;, &quot;Oil_Radish_18&quot;, &quot;Rye_19&quot;, &quot;Malted_Barley_20&quot;, &quot;Sorghum_21&quot;], &quot;label_groups&quot;: [[&quot;Reference_0&quot;, &quot;Red_Clover_1&quot;, &quot;Common_Pea_2&quot;, &quot;Austrian_Winter_Pea_3&quot;, &quot;Marrowfat_Pea_4&quot;, &quot;Sugar_Beet_5&quot;, &quot;Chickpea_6&quot;, &quot;Buckwheat_7&quot;, &quot;Orange_Corn_8&quot;, &quot;Sweet_Corn_9&quot;, &quot;Faba_Bean_10&quot;, &quot;Soybean_11&quot;, &quot;Common_Wheat_12&quot;, &quot;Hairy_Vetch_13&quot;, &quot;Sunflower_14&quot;, &quot;Oat_15&quot;, &quot;Carrot_16&quot;, &quot;Mustard_17&quot;, &quot;Oil_Radish_18&quot;, &quot;Rye_19&quot;, &quot;Malted_Barley_20&quot;, &quot;Sorghum_21&quot;]]}" />
			<labels value="Reference_0 Red_Clover_1 Common_Pea_2 Austrian_Winter_Pea_3 Marrowfat_Pea_4 Sugar_Beet_5 Chickpea_6 Buckwheat_7 Orange_Corn_8 Sweet_Corn_9 Faba_Bean_10 Soybean_11 Common_Wheat_12 Hairy_Vetch_13 Sunflower_14 Oat_15 Carrot_16 Mustard_17 Oil_Radish_18 Rye_19 Malted_Barley_20 Sorghum_21" />
			<mean_values value="0.0 0.0 0.0" />
			<model_type value="ssd" />
			<optimization_config value="{}" />
			<pad_value value="0" />
			<resize_type value="standard" />
			<reverse_input_channels value="False" />
			<scale_values value="255.0 255.0 255.0" />
			<task_type value="detection" />
		</model_info>
	</rt_info>
</net>
